Neural Network Tools for STM32 family v1.7.0 (stm.ai v8.1.0-19520)
Created date          : 2024-04-02 14:26:55
Parameters            : generate --name network -m AI_MODEL/vertu_horu.tflite --type tflite --compression none --verbosity 1 --output ./X-CUBE-AI/App --target ./mempools.json --allocate-inputs --series stm32h7 --allocate-outputs --binary --address 0x70000000

Exec/report summary (generate)
---------------------------------------------------------------------------------------------------------------------------
model file         :   /mnt/c/Users/cleme/Documents/Dev/vittascience/vittascience_wio_lite_ai/AI_MODEL/vertu_horu.tflite   
type               :   tflite                                                                                              
c_name             :   network                                                                                             
compression        :   none                                                                                                
options            :   allocate-inputs, allocate-outputs, multi-heaps                                                      
optimization       :   balanced                                                                                            
target/series      :   stm32h7                                                                                             
target info        :   ./mempools.json                                                                                     
workspace dir      :   /mnt/c/Users/cleme/Documents/Dev/vittascience/vittascience_wio_lite_ai/stm32ai_ws                   
output dir         :   /mnt/c/Users/cleme/Documents/Dev/vittascience/vittascience_wio_lite_ai/X-CUBE-AI/App                
model_fmt          :   ss/sa per channel                                                                                   
model_name         :   vertu_horu                                                                                          
model_hash         :   ddf8bd1e5d490b1867e3f6d4dce9c6a1                                                                    
params #           :   517,388 items (526.18 KiB)                                                                          
---------------------------------------------------------------------------------------------------------------------------
input 1/1          :   'serving_default_sequential_1_input0' (domain:activations/extmem)                                   
                   :   150528 items, 147.00 KiB, ai_u8, s=0.00392157, zp=0, (1,224,224,3)                                  
output 1/1         :   'conversion_72' (domain:activations/extmem)                                                         
                   :   2 items, 2 B, ai_u8, s=0.00390625, zp=0, (1,2)                                                      
macc               :   58,587,280                                                                                          
weights (ro)       :   538,816 B (526.19 KiB) (1 segment) / -1,530,736(-74.0%) vs float model                              
activations (rw)   :   702,976 B (686.50 KiB) (1 segment) *                                                                
ram (total)        :   702,976 B (686.50 KiB) = 702,976 + 0 + 0                                                            
---------------------------------------------------------------------------------------------------------------------------
(*) 'input'/'output' buffers can be used from the activations buffer
 
 Memory-pools summary (activations/ domain)
 -------- -------- ------------- ------------------- --------- 
 name     id       usable size   used                buffer#   
 -------- -------- ------------- ------------------- --------- 
 extmem   0        6.84 MiB      686.50 KiB (9.8%)   176       
 pool2    unused   128.00 KiB    -                   -         
 -------- -------- ------------- ------------------- --------- 
 Warning: ['pool2'] memory pool is not used

Model name - vertu_horu ['serving_default_sequential_1_input0'] ['conversion_72']
------ --------------------------------------------------------------- ------------------------------ ----------------- ----------- ----------------------------------------------- --- ----------------- --------------------- ----------------------------- 
m_id   layer (type,original)                                           oshape                         param/size               macc                                    connected to   | c_size            c_macc                c_type                        
------ --------------------------------------------------------------- ------------------------------ ----------------- ----------- ----------------------------------------------- --- ----------------- --------------------- ----------------------------- 
0      serving_default_sequential_1_input0 (Input, )                   [b:1,h:224,h:224,w:224,c:3]                                                                                    |                   +301,056(+100.0%)     converter_oi8[0]              
       conversion_0 (Conversion, QUANTIZE)                             [b:1,h:224,h:224,w:224,c:3]                          301,056             serving_default_sequential_1_input0   |                   -301,056(-100.0%)     
------ --------------------------------------------------------------- ------------------------------ ----------------- ----------- ----------------------------------------------- --- ----------------- --------------------- ----------------------------- 
1      pad_1 (Pad, PAD)                                                [b:1,h:225,h:225,w:225,c:3]                                                                     conversion_0   |                                         
------ --------------------------------------------------------------- ------------------------------ ----------------- ----------- ----------------------------------------------- --- ----------------- --------------------- ----------------------------- 
2      conv2d_2 (Conv2D, CONV_2D)                                      [b:1,h:112,h:112,w:112,c:16]   448/496             5,419,024                                           pad_1   |                                         optimized_conv2d_oi8[1]       
       nl_2_nl (Nonlinearity, CONV_2D)                                 [b:1,h:112,h:112,w:112,c:16]                         200,704                                        conv2d_2   |                   -200,704(-100.0%)     
------ --------------------------------------------------------------- ------------------------------ ----------------- ----------- ----------------------------------------------- --- ----------------- --------------------- ----------------------------- 
3      conv2d_3 (Conv2D, DEPTHWISE_CONV_2D)                            [b:1,h:112,h:112,w:112,c:16]   160/208             1,806,352                                         nl_2_nl   |                                         pad_oi8/conv2d_oi8[2, 3]      
       nl_3_nl (Nonlinearity, DEPTHWISE_CONV_2D)                       [b:1,h:112,h:112,w:112,c:16]                         200,704                                        conv2d_3   |                   -200,704(-100.0%)     
------ --------------------------------------------------------------- ------------------------------ ----------------- ----------- ----------------------------------------------- --- ----------------- --------------------- ----------------------------- 
4      conv2d_4 (Conv2D, CONV_2D)                                      [b:1,h:112,h:112,w:112,c:8]    136/160             1,605,640                                         nl_3_nl   |                                         conv2d_oi8[4]                 
------ --------------------------------------------------------------- ------------------------------ ----------------- ----------- ----------------------------------------------- --- ----------------- --------------------- ----------------------------- 
5      conv2d_5 (Conv2D, CONV_2D)                                      [b:1,h:112,h:112,w:112,c:48]   432/576             4,816,944                                        conv2d_4   |                                         conv2d_oi8[5]                 
       nl_5_nl (Nonlinearity, CONV_2D)                                 [b:1,h:112,h:112,w:112,c:48]                         602,112                                        conv2d_5   |                   -602,112(-100.0%)     
------ --------------------------------------------------------------- ------------------------------ ----------------- ----------- ----------------------------------------------- --- ----------------- --------------------- ----------------------------- 
6      pad_6 (Pad, PAD)                                                [b:1,h:113,h:113,w:113,c:48]                                                                         nl_5_nl   | +624(+100.0%)     +1,354,800(+100.0%)   conv2d_oi8[7]                 
------ --------------------------------------------------------------- ------------------------------ ----------------- ----------- ----------------------------------------------- --- ----------------- --------------------- ----------------------------- 
7      conv2d_7 (Conv2D, DEPTHWISE_CONV_2D)                            [b:1,h:56,h:56,w:56,c:48]      480/624             1,354,800                                           pad_6   | -624(-100.0%)     -1,354,800(-100.0%)   pad_oi8[6]                    
       nl_7_nl (Nonlinearity, DEPTHWISE_CONV_2D)                       [b:1,h:56,h:56,w:56,c:48]                            150,528                                        conv2d_7   |                   -150,528(-100.0%)     
------ --------------------------------------------------------------- ------------------------------ ----------------- ----------- ----------------------------------------------- --- ----------------- --------------------- ----------------------------- 
8      conv2d_8 (Conv2D, CONV_2D)                                      [b:1,h:56,h:56,w:56,c:8]       392/416             1,204,232                                         nl_7_nl   |                                         conv2d_oi8[8]                 
------ --------------------------------------------------------------- ------------------------------ ----------------- ----------- ----------------------------------------------- --- ----------------- --------------------- ----------------------------- 
9      conv2d_9 (Conv2D, CONV_2D)                                      [b:1,h:56,h:56,w:56,c:48]      432/576             1,204,272                                        conv2d_8   |                                         conv2d_oi8[9]                 
       nl_9_nl (Nonlinearity, CONV_2D)                                 [b:1,h:56,h:56,w:56,c:48]                            150,528                                        conv2d_9   |                   -150,528(-100.0%)     
------ --------------------------------------------------------------- ------------------------------ ----------------- ----------- ----------------------------------------------- --- ----------------- --------------------- ----------------------------- 
10     conv2d_10 (Conv2D, DEPTHWISE_CONV_2D)                           [b:1,h:56,h:56,w:56,c:48]      480/624             1,354,800                                         nl_9_nl   |                                         pad_oi8/conv2d_oi8[10, 11]    
       nl_10_nl (Nonlinearity, DEPTHWISE_CONV_2D)                      [b:1,h:56,h:56,w:56,c:48]                            150,528                                       conv2d_10   |                   -150,528(-100.0%)     
------ --------------------------------------------------------------- ------------------------------ ----------------- ----------- ----------------------------------------------- --- ----------------- --------------------- ----------------------------- 
11     conv2d_11 (Conv2D, CONV_2D)                                     [b:1,h:56,h:56,w:56,c:8]       392/416             1,204,232                                        nl_10_nl   |                                         conv2d_oi8[12]                
------ --------------------------------------------------------------- ------------------------------ ----------------- ----------- ----------------------------------------------- --- ----------------- --------------------- ----------------------------- 
12     eltwise_12 (Eltwise, ADD)                                       [b:1,h:56,h:56,w:56,c:8]                              25,088                                        conv2d_8   |                                         eltwise_integer/sum_oi8[13]   
                                                                                                                                                                          conv2d_11   | 
------ --------------------------------------------------------------- ------------------------------ ----------------- ----------- ----------------------------------------------- --- ----------------- --------------------- ----------------------------- 
13     conv2d_13 (Conv2D, CONV_2D)                                     [b:1,h:56,h:56,w:56,c:48]      432/576             1,204,272                                      eltwise_12   |                                         conv2d_oi8[14]                
       nl_13_nl (Nonlinearity, CONV_2D)                                [b:1,h:56,h:56,w:56,c:48]                            150,528                                       conv2d_13   |                   -150,528(-100.0%)     
------ --------------------------------------------------------------- ------------------------------ ----------------- ----------- ----------------------------------------------- --- ----------------- --------------------- ----------------------------- 
14     pad_14 (Pad, PAD)                                               [b:1,h:57,h:57,w:57,c:48]                                                                           nl_13_nl   | +624(+100.0%)     +338,736(+100.0%)     conv2d_oi8[16]                
------ --------------------------------------------------------------- ------------------------------ ----------------- ----------- ----------------------------------------------- --- ----------------- --------------------- ----------------------------- 
15     conv2d_15 (Conv2D, DEPTHWISE_CONV_2D)                           [b:1,h:28,h:28,w:28,c:48]      480/624               338,736                                          pad_14   | -624(-100.0%)     -338,736(-100.0%)     pad_oi8[15]                   
       nl_15_nl (Nonlinearity, DEPTHWISE_CONV_2D)                      [b:1,h:28,h:28,w:28,c:48]                             37,632                                       conv2d_15   |                   -37,632(-100.0%)      
------ --------------------------------------------------------------- ------------------------------ ----------------- ----------- ----------------------------------------------- --- ----------------- --------------------- ----------------------------- 
16     conv2d_16 (Conv2D, CONV_2D)                                     [b:1,h:28,h:28,w:28,c:16]      784/832               602,128                                        nl_15_nl   |                                         conv2d_oi8[17]                
------ --------------------------------------------------------------- ------------------------------ ----------------- ----------- ----------------------------------------------- --- ----------------- --------------------- ----------------------------- 
17     conv2d_17 (Conv2D, CONV_2D)                                     [b:1,h:28,h:28,w:28,c:96]      1,632/1,920         1,204,320                                       conv2d_16   |                                         conv2d_oi8[18]                
       nl_17_nl (Nonlinearity, CONV_2D)                                [b:1,h:28,h:28,w:28,c:96]                             75,264                                       conv2d_17   |                   -75,264(-100.0%)      
------ --------------------------------------------------------------- ------------------------------ ----------------- ----------- ----------------------------------------------- --- ----------------- --------------------- ----------------------------- 
18     conv2d_18 (Conv2D, DEPTHWISE_CONV_2D)                           [b:1,h:28,h:28,w:28,c:96]      960/1,248             677,472                                        nl_17_nl   |                                         pad_oi8/conv2d_oi8[19, 20]    
       nl_18_nl (Nonlinearity, DEPTHWISE_CONV_2D)                      [b:1,h:28,h:28,w:28,c:96]                             75,264                                       conv2d_18   |                   -75,264(-100.0%)      
------ --------------------------------------------------------------- ------------------------------ ----------------- ----------- ----------------------------------------------- --- ----------------- --------------------- ----------------------------- 
19     conv2d_19 (Conv2D, CONV_2D)                                     [b:1,h:28,h:28,w:28,c:16]      1,552/1,600         1,204,240                                        nl_18_nl   |                                         conv2d_oi8[21]                
------ --------------------------------------------------------------- ------------------------------ ----------------- ----------- ----------------------------------------------- --- ----------------- --------------------- ----------------------------- 
20     eltwise_20 (Eltwise, ADD)                                       [b:1,h:28,h:28,w:28,c:16]                             12,544                                       conv2d_16   |                                         eltwise_integer/sum_oi8[22]   
                                                                                                                                                                          conv2d_19   | 
------ --------------------------------------------------------------- ------------------------------ ----------------- ----------- ----------------------------------------------- --- ----------------- --------------------- ----------------------------- 
21     conv2d_21 (Conv2D, CONV_2D)                                     [b:1,h:28,h:28,w:28,c:96]      1,632/1,920         1,204,320                                      eltwise_20   |                                         conv2d_oi8[23]                
       nl_21_nl (Nonlinearity, CONV_2D)                                [b:1,h:28,h:28,w:28,c:96]                             75,264                                       conv2d_21   |                   -75,264(-100.0%)      
------ --------------------------------------------------------------- ------------------------------ ----------------- ----------- ----------------------------------------------- --- ----------------- --------------------- ----------------------------- 
22     conv2d_22 (Conv2D, DEPTHWISE_CONV_2D)                           [b:1,h:28,h:28,w:28,c:96]      960/1,248             677,472                                        nl_21_nl   |                                         pad_oi8/conv2d_oi8[24, 25]    
       nl_22_nl (Nonlinearity, DEPTHWISE_CONV_2D)                      [b:1,h:28,h:28,w:28,c:96]                             75,264                                       conv2d_22   |                   -75,264(-100.0%)      
------ --------------------------------------------------------------- ------------------------------ ----------------- ----------- ----------------------------------------------- --- ----------------- --------------------- ----------------------------- 
23     conv2d_23 (Conv2D, CONV_2D)                                     [b:1,h:28,h:28,w:28,c:16]      1,552/1,600         1,204,240                                        nl_22_nl   |                                         conv2d_oi8[26]                
------ --------------------------------------------------------------- ------------------------------ ----------------- ----------- ----------------------------------------------- --- ----------------- --------------------- ----------------------------- 
24     eltwise_24 (Eltwise, ADD)                                       [b:1,h:28,h:28,w:28,c:16]                             12,544                                      eltwise_20   |                                         eltwise_integer/sum_oi8[27]   
                                                                                                                                                                          conv2d_23   | 
------ --------------------------------------------------------------- ------------------------------ ----------------- ----------- ----------------------------------------------- --- ----------------- --------------------- ----------------------------- 
25     conv2d_25 (Conv2D, CONV_2D)                                     [b:1,h:28,h:28,w:28,c:96]      1,632/1,920         1,204,320                                      eltwise_24   |                                         conv2d_oi8[28]                
       nl_25_nl (Nonlinearity, CONV_2D)                                [b:1,h:28,h:28,w:28,c:96]                             75,264                                       conv2d_25   |                   -75,264(-100.0%)      
------ --------------------------------------------------------------- ------------------------------ ----------------- ----------- ----------------------------------------------- --- ----------------- --------------------- ----------------------------- 
26     pad_26 (Pad, PAD)                                               [b:1,h:29,h:29,w:29,c:96]                                                                           nl_25_nl   | +1,248(+100.0%)   +169,440(+100.0%)     conv2d_oi8[30]                
------ --------------------------------------------------------------- ------------------------------ ----------------- ----------- ----------------------------------------------- --- ----------------- --------------------- ----------------------------- 
27     conv2d_27 (Conv2D, DEPTHWISE_CONV_2D)                           [b:1,h:14,h:14,w:14,c:96]      960/1,248             169,440                                          pad_26   | -1,248(-100.0%)   -169,440(-100.0%)     pad_oi8[29]                   
       nl_27_nl (Nonlinearity, DEPTHWISE_CONV_2D)                      [b:1,h:14,h:14,w:14,c:96]                             18,816                                       conv2d_27   |                   -18,816(-100.0%)      
------ --------------------------------------------------------------- ------------------------------ ----------------- ----------- ----------------------------------------------- --- ----------------- --------------------- ----------------------------- 
28     conv2d_28 (Conv2D, CONV_2D)                                     [b:1,h:14,h:14,w:14,c:24]      2,328/2,400           451,608                                        nl_27_nl   |                                         conv2d_oi8[31]                
------ --------------------------------------------------------------- ------------------------------ ----------------- ----------- ----------------------------------------------- --- ----------------- --------------------- ----------------------------- 
29     conv2d_29 (Conv2D, CONV_2D)                                     [b:1,h:14,h:14,w:14,c:144]     3,600/4,032           677,520                                       conv2d_28   |                                         conv2d_oi8[32]                
       nl_29_nl (Nonlinearity, CONV_2D)                                [b:1,h:14,h:14,w:14,c:144]                            28,224                                       conv2d_29   |                   -28,224(-100.0%)      
------ --------------------------------------------------------------- ------------------------------ ----------------- ----------- ----------------------------------------------- --- ----------------- --------------------- ----------------------------- 
30     conv2d_30 (Conv2D, DEPTHWISE_CONV_2D)                           [b:1,h:14,h:14,w:14,c:144]     1,440/1,872           254,160                                        nl_29_nl   |                                         pad_oi8/conv2d_oi8[33, 34]    
       nl_30_nl (Nonlinearity, DEPTHWISE_CONV_2D)                      [b:1,h:14,h:14,w:14,c:144]                            28,224                                       conv2d_30   |                   -28,224(-100.0%)      
------ --------------------------------------------------------------- ------------------------------ ----------------- ----------- ----------------------------------------------- --- ----------------- --------------------- ----------------------------- 
31     conv2d_31 (Conv2D, CONV_2D)                                     [b:1,h:14,h:14,w:14,c:24]      3,480/3,552           677,400                                        nl_30_nl   |                                         conv2d_oi8[35]                
------ --------------------------------------------------------------- ------------------------------ ----------------- ----------- ----------------------------------------------- --- ----------------- --------------------- ----------------------------- 
32     eltwise_32 (Eltwise, ADD)                                       [b:1,h:14,h:14,w:14,c:24]                              4,704                                       conv2d_28   |                                         eltwise_integer/sum_oi8[36]   
                                                                                                                                                                          conv2d_31   | 
------ --------------------------------------------------------------- ------------------------------ ----------------- ----------- ----------------------------------------------- --- ----------------- --------------------- ----------------------------- 
33     conv2d_33 (Conv2D, CONV_2D)                                     [b:1,h:14,h:14,w:14,c:144]     3,600/4,032           677,520                                      eltwise_32   |                                         conv2d_oi8[37]                
       nl_33_nl (Nonlinearity, CONV_2D)                                [b:1,h:14,h:14,w:14,c:144]                            28,224                                       conv2d_33   |                   -28,224(-100.0%)      
------ --------------------------------------------------------------- ------------------------------ ----------------- ----------- ----------------------------------------------- --- ----------------- --------------------- ----------------------------- 
34     conv2d_34 (Conv2D, DEPTHWISE_CONV_2D)                           [b:1,h:14,h:14,w:14,c:144]     1,440/1,872           254,160                                        nl_33_nl   |                                         pad_oi8/conv2d_oi8[38, 39]    
       nl_34_nl (Nonlinearity, DEPTHWISE_CONV_2D)                      [b:1,h:14,h:14,w:14,c:144]                            28,224                                       conv2d_34   |                   -28,224(-100.0%)      
------ --------------------------------------------------------------- ------------------------------ ----------------- ----------- ----------------------------------------------- --- ----------------- --------------------- ----------------------------- 
35     conv2d_35 (Conv2D, CONV_2D)                                     [b:1,h:14,h:14,w:14,c:24]      3,480/3,552           677,400                                        nl_34_nl   |                                         conv2d_oi8[40]                
------ --------------------------------------------------------------- ------------------------------ ----------------- ----------- ----------------------------------------------- --- ----------------- --------------------- ----------------------------- 
36     eltwise_36 (Eltwise, ADD)                                       [b:1,h:14,h:14,w:14,c:24]                              4,704                                      eltwise_32   |                                         eltwise_integer/sum_oi8[41]   
                                                                                                                                                                          conv2d_35   | 
------ --------------------------------------------------------------- ------------------------------ ----------------- ----------- ----------------------------------------------- --- ----------------- --------------------- ----------------------------- 
37     conv2d_37 (Conv2D, CONV_2D)                                     [b:1,h:14,h:14,w:14,c:144]     3,600/4,032           677,520                                      eltwise_36   |                                         conv2d_oi8[42]                
       nl_37_nl (Nonlinearity, CONV_2D)                                [b:1,h:14,h:14,w:14,c:144]                            28,224                                       conv2d_37   |                   -28,224(-100.0%)      
------ --------------------------------------------------------------- ------------------------------ ----------------- ----------- ----------------------------------------------- --- ----------------- --------------------- ----------------------------- 
38     conv2d_38 (Conv2D, DEPTHWISE_CONV_2D)                           [b:1,h:14,h:14,w:14,c:144]     1,440/1,872           254,160                                        nl_37_nl   |                                         pad_oi8/conv2d_oi8[43, 44]    
       nl_38_nl (Nonlinearity, DEPTHWISE_CONV_2D)                      [b:1,h:14,h:14,w:14,c:144]                            28,224                                       conv2d_38   |                   -28,224(-100.0%)      
------ --------------------------------------------------------------- ------------------------------ ----------------- ----------- ----------------------------------------------- --- ----------------- --------------------- ----------------------------- 
39     conv2d_39 (Conv2D, CONV_2D)                                     [b:1,h:14,h:14,w:14,c:24]      3,480/3,552           677,400                                        nl_38_nl   |                                         conv2d_oi8[45]                
------ --------------------------------------------------------------- ------------------------------ ----------------- ----------- ----------------------------------------------- --- ----------------- --------------------- ----------------------------- 
40     eltwise_40 (Eltwise, ADD)                                       [b:1,h:14,h:14,w:14,c:24]                              4,704                                      eltwise_36   |                                         eltwise_integer/sum_oi8[46]   
                                                                                                                                                                          conv2d_39   | 
------ --------------------------------------------------------------- ------------------------------ ----------------- ----------- ----------------------------------------------- --- ----------------- --------------------- ----------------------------- 
41     conv2d_41 (Conv2D, CONV_2D)                                     [b:1,h:14,h:14,w:14,c:144]     3,600/4,032           677,520                                      eltwise_40   |                                         conv2d_oi8[47]                
       nl_41_nl (Nonlinearity, CONV_2D)                                [b:1,h:14,h:14,w:14,c:144]                            28,224                                       conv2d_41   |                   -28,224(-100.0%)      
------ --------------------------------------------------------------- ------------------------------ ----------------- ----------- ----------------------------------------------- --- ----------------- --------------------- ----------------------------- 
42     conv2d_42 (Conv2D, DEPTHWISE_CONV_2D)                           [b:1,h:14,h:14,w:14,c:144]     1,440/1,872           254,160                                        nl_41_nl   |                                         pad_oi8/conv2d_oi8[48, 49]    
       nl_42_nl (Nonlinearity, DEPTHWISE_CONV_2D)                      [b:1,h:14,h:14,w:14,c:144]                            28,224                                       conv2d_42   |                   -28,224(-100.0%)      
------ --------------------------------------------------------------- ------------------------------ ----------------- ----------- ----------------------------------------------- --- ----------------- --------------------- ----------------------------- 
43     conv2d_43 (Conv2D, CONV_2D)                                     [b:1,h:14,h:14,w:14,c:32]      4,640/4,736           903,200                                        nl_42_nl   |                                         conv2d_oi8[50]                
------ --------------------------------------------------------------- ------------------------------ ----------------- ----------- ----------------------------------------------- --- ----------------- --------------------- ----------------------------- 
44     conv2d_44 (Conv2D, CONV_2D)                                     [b:1,h:14,h:14,w:14,c:192]     6,336/6,912         1,204,416                                       conv2d_43   |                                         conv2d_oi8[51]                
       nl_44_nl (Nonlinearity, CONV_2D)                                [b:1,h:14,h:14,w:14,c:192]                            37,632                                       conv2d_44   |                   -37,632(-100.0%)      
------ --------------------------------------------------------------- ------------------------------ ----------------- ----------- ----------------------------------------------- --- ----------------- --------------------- ----------------------------- 
45     conv2d_45 (Conv2D, DEPTHWISE_CONV_2D)                           [b:1,h:14,h:14,w:14,c:192]     1,920/2,496           338,880                                        nl_44_nl   |                                         pad_oi8/conv2d_oi8[52, 53]    
       nl_45_nl (Nonlinearity, DEPTHWISE_CONV_2D)                      [b:1,h:14,h:14,w:14,c:192]                            37,632                                       conv2d_45   |                   -37,632(-100.0%)      
------ --------------------------------------------------------------- ------------------------------ ----------------- ----------- ----------------------------------------------- --- ----------------- --------------------- ----------------------------- 
46     conv2d_46 (Conv2D, CONV_2D)                                     [b:1,h:14,h:14,w:14,c:32]      6,176/6,272         1,204,256                                        nl_45_nl   |                                         conv2d_oi8[54]                
------ --------------------------------------------------------------- ------------------------------ ----------------- ----------- ----------------------------------------------- --- ----------------- --------------------- ----------------------------- 
47     eltwise_47 (Eltwise, ADD)                                       [b:1,h:14,h:14,w:14,c:32]                              6,272                                       conv2d_43   |                                         eltwise_integer/sum_oi8[55]   
                                                                                                                                                                          conv2d_46   | 
------ --------------------------------------------------------------- ------------------------------ ----------------- ----------- ----------------------------------------------- --- ----------------- --------------------- ----------------------------- 
48     conv2d_48 (Conv2D, CONV_2D)                                     [b:1,h:14,h:14,w:14,c:192]     6,336/6,912         1,204,416                                      eltwise_47   |                                         conv2d_oi8[56]                
       nl_48_nl (Nonlinearity, CONV_2D)                                [b:1,h:14,h:14,w:14,c:192]                            37,632                                       conv2d_48   |                   -37,632(-100.0%)      
------ --------------------------------------------------------------- ------------------------------ ----------------- ----------- ----------------------------------------------- --- ----------------- --------------------- ----------------------------- 
49     conv2d_49 (Conv2D, DEPTHWISE_CONV_2D)                           [b:1,h:14,h:14,w:14,c:192]     1,920/2,496           338,880                                        nl_48_nl   |                                         pad_oi8/conv2d_oi8[57, 58]    
       nl_49_nl (Nonlinearity, DEPTHWISE_CONV_2D)                      [b:1,h:14,h:14,w:14,c:192]                            37,632                                       conv2d_49   |                   -37,632(-100.0%)      
------ --------------------------------------------------------------- ------------------------------ ----------------- ----------- ----------------------------------------------- --- ----------------- --------------------- ----------------------------- 
50     conv2d_50 (Conv2D, CONV_2D)                                     [b:1,h:14,h:14,w:14,c:32]      6,176/6,272         1,204,256                                        nl_49_nl   |                                         conv2d_oi8[59]                
------ --------------------------------------------------------------- ------------------------------ ----------------- ----------- ----------------------------------------------- --- ----------------- --------------------- ----------------------------- 
51     eltwise_51 (Eltwise, ADD)                                       [b:1,h:14,h:14,w:14,c:32]                              6,272                                      eltwise_47   |                                         eltwise_integer/sum_oi8[60]   
                                                                                                                                                                          conv2d_50   | 
------ --------------------------------------------------------------- ------------------------------ ----------------- ----------- ----------------------------------------------- --- ----------------- --------------------- ----------------------------- 
52     conv2d_52 (Conv2D, CONV_2D)                                     [b:1,h:14,h:14,w:14,c:192]     6,336/6,912         1,204,416                                      eltwise_51   |                                         conv2d_oi8[61]                
       nl_52_nl (Nonlinearity, CONV_2D)                                [b:1,h:14,h:14,w:14,c:192]                            37,632                                       conv2d_52   |                   -37,632(-100.0%)      
------ --------------------------------------------------------------- ------------------------------ ----------------- ----------- ----------------------------------------------- --- ----------------- --------------------- ----------------------------- 
53     pad_53 (Pad, PAD)                                               [b:1,h:15,h:15,w:15,c:192]                                                                          nl_52_nl   | +2,496(+100.0%)   +84,864(+100.0%)      conv2d_oi8[63]                
------ --------------------------------------------------------------- ------------------------------ ----------------- ----------- ----------------------------------------------- --- ----------------- --------------------- ----------------------------- 
54     conv2d_54 (Conv2D, DEPTHWISE_CONV_2D)                           [b:1,h:7,h:7,w:7,c:192]        1,920/2,496            84,864                                          pad_53   | -2,496(-100.0%)   -84,864(-100.0%)      pad_oi8[62]                   
       nl_54_nl (Nonlinearity, DEPTHWISE_CONV_2D)                      [b:1,h:7,h:7,w:7,c:192]                                9,408                                       conv2d_54   |                   -9,408(-100.0%)       
------ --------------------------------------------------------------- ------------------------------ ----------------- ----------- ----------------------------------------------- --- ----------------- --------------------- ----------------------------- 
55     conv2d_55 (Conv2D, CONV_2D)                                     [b:1,h:7,h:7,w:7,c:56]         10,808/10,976         526,904                                        nl_54_nl   |                                         conv2d_oi8[64]                
------ --------------------------------------------------------------- ------------------------------ ----------------- ----------- ----------------------------------------------- --- ----------------- --------------------- ----------------------------- 
56     conv2d_56 (Conv2D, CONV_2D)                                     [b:1,h:7,h:7,w:7,c:336]        19,152/20,160         922,320                                       conv2d_55   |                                         conv2d_oi8[65]                
       nl_56_nl (Nonlinearity, CONV_2D)                                [b:1,h:7,h:7,w:7,c:336]                               16,464                                       conv2d_56   |                   -16,464(-100.0%)      
------ --------------------------------------------------------------- ------------------------------ ----------------- ----------- ----------------------------------------------- --- ----------------- --------------------- ----------------------------- 
57     conv2d_57 (Conv2D, DEPTHWISE_CONV_2D)                           [b:1,h:7,h:7,w:7,c:336]        3,360/4,368           148,512                                        nl_56_nl   |                                         pad_oi8/conv2d_oi8[66, 67]    
       nl_57_nl (Nonlinearity, DEPTHWISE_CONV_2D)                      [b:1,h:7,h:7,w:7,c:336]                               16,464                                       conv2d_57   |                   -16,464(-100.0%)      
------ --------------------------------------------------------------- ------------------------------ ----------------- ----------- ----------------------------------------------- --- ----------------- --------------------- ----------------------------- 
58     conv2d_58 (Conv2D, CONV_2D)                                     [b:1,h:7,h:7,w:7,c:56]         18,872/19,040         922,040                                        nl_57_nl   |                                         conv2d_oi8[68]                
------ --------------------------------------------------------------- ------------------------------ ----------------- ----------- ----------------------------------------------- --- ----------------- --------------------- ----------------------------- 
59     eltwise_59 (Eltwise, ADD)                                       [b:1,h:7,h:7,w:7,c:56]                                 2,744                                       conv2d_55   |                                         eltwise_integer/sum_oi8[69]   
                                                                                                                                                                          conv2d_58   | 
------ --------------------------------------------------------------- ------------------------------ ----------------- ----------- ----------------------------------------------- --- ----------------- --------------------- ----------------------------- 
60     conv2d_60 (Conv2D, CONV_2D)                                     [b:1,h:7,h:7,w:7,c:336]        19,152/20,160         922,320                                      eltwise_59   |                                         conv2d_oi8[70]                
       nl_60_nl (Nonlinearity, CONV_2D)                                [b:1,h:7,h:7,w:7,c:336]                               16,464                                       conv2d_60   |                   -16,464(-100.0%)      
------ --------------------------------------------------------------- ------------------------------ ----------------- ----------- ----------------------------------------------- --- ----------------- --------------------- ----------------------------- 
61     conv2d_61 (Conv2D, DEPTHWISE_CONV_2D)                           [b:1,h:7,h:7,w:7,c:336]        3,360/4,368           148,512                                        nl_60_nl   |                                         pad_oi8/conv2d_oi8[71, 72]    
       nl_61_nl (Nonlinearity, DEPTHWISE_CONV_2D)                      [b:1,h:7,h:7,w:7,c:336]                               16,464                                       conv2d_61   |                   -16,464(-100.0%)      
------ --------------------------------------------------------------- ------------------------------ ----------------- ----------- ----------------------------------------------- --- ----------------- --------------------- ----------------------------- 
62     conv2d_62 (Conv2D, CONV_2D)                                     [b:1,h:7,h:7,w:7,c:56]         18,872/19,040         922,040                                        nl_61_nl   |                                         conv2d_oi8[73]                
------ --------------------------------------------------------------- ------------------------------ ----------------- ----------- ----------------------------------------------- --- ----------------- --------------------- ----------------------------- 
63     eltwise_63 (Eltwise, ADD)                                       [b:1,h:7,h:7,w:7,c:56]                                 2,744                                      eltwise_59   |                                         eltwise_integer/sum_oi8[74]   
                                                                                                                                                                          conv2d_62   | 
------ --------------------------------------------------------------- ------------------------------ ----------------- ----------- ----------------------------------------------- --- ----------------- --------------------- ----------------------------- 
64     conv2d_64 (Conv2D, CONV_2D)                                     [b:1,h:7,h:7,w:7,c:336]        19,152/20,160         922,320                                      eltwise_63   |                                         conv2d_oi8[75]                
       nl_64_nl (Nonlinearity, CONV_2D)                                [b:1,h:7,h:7,w:7,c:336]                               16,464                                       conv2d_64   |                   -16,464(-100.0%)      
------ --------------------------------------------------------------- ------------------------------ ----------------- ----------- ----------------------------------------------- --- ----------------- --------------------- ----------------------------- 
65     conv2d_65 (Conv2D, DEPTHWISE_CONV_2D)                           [b:1,h:7,h:7,w:7,c:336]        3,360/4,368           148,512                                        nl_64_nl   |                                         pad_oi8/conv2d_oi8[76, 77]    
       nl_65_nl (Nonlinearity, DEPTHWISE_CONV_2D)                      [b:1,h:7,h:7,w:7,c:336]                               16,464                                       conv2d_65   |                   -16,464(-100.0%)      
------ --------------------------------------------------------------- ------------------------------ ----------------- ----------- ----------------------------------------------- --- ----------------- --------------------- ----------------------------- 
66     conv2d_66 (Conv2D, CONV_2D)                                     [b:1,h:7,h:7,w:7,c:112]        37,744/38,080       1,844,080                                        nl_65_nl   |                                         conv2d_oi8[78]                
------ --------------------------------------------------------------- ------------------------------ ----------------- ----------- ----------------------------------------------- --- ----------------- --------------------- ----------------------------- 
67     conv2d_67 (Conv2D, CONV_2D)                                     [b:1,h:7,h:7,w:7,c:1280]       144,640/148,480     7,025,920                                       conv2d_66   |                                         conv2d_oi8[79]                
       nl_67_nl (Nonlinearity, CONV_2D)                                [b:1,h:7,h:7,w:7,c:1280]                              62,720                                       conv2d_67   |                   -62,720(-100.0%)      
------ --------------------------------------------------------------- ------------------------------ ----------------- ----------- ----------------------------------------------- --- ----------------- --------------------- ----------------------------- 
68     pool_68 (Pool, MEAN)                                            [b:1,h:1,h:1,w:1,c:1280]                              62,720                                        nl_67_nl   |                                         pool_oi8[80]                  
       reshape_68_reshape (Reshape, MEAN)                              [b:1,c:1280]                                                                                         pool_68   |                                         
------ --------------------------------------------------------------- ------------------------------ ----------------- ----------- ----------------------------------------------- --- ----------------- --------------------- ----------------------------- 
69     sequential_4_sequential_3_dense_Dense1_MatMul (Placeholder, )   [h:100,h:100,c:1280]           128,000/128,000                                                                 | +400(+0.3%)       +128,100(+100.0%)     dense_oi8[81]                 
       dense_Dense1_bias (Placeholder, )                               [c:100]                        100/400                                                                         | -400(-100.0%)                           
       gemm_69 (Gemm, FULLY_CONNECTED)                                 [b:1,c:100]                                          128,100                              reshape_68_reshape   |                   -128,100(-100.0%)     
                                                                                                                                      sequential_4_sequential_3_dense_Dense1_MatMul   | 
                                                                                                                                                                  dense_Dense1_bias   | 
       nl_69_nl (Nonlinearity, FULLY_CONNECTED)                        [b:1,c:100]                                              100                                         gemm_69   |                   -100(-100.0%)         
------ --------------------------------------------------------------- ------------------------------ ----------------- ----------- ----------------------------------------------- --- ----------------- --------------------- ----------------------------- 
70     sequential_4_sequential_3_dense_Dense2_MatMul (Placeholder, )   [h:2,h:2,c:100]                200/200                                                                         | +8(+4.0%)         +202(+100.0%)         dense_oi8[82]                 
       gemm_70 (Gemm, FULLY_CONNECTED)                                 [b:1,c:2]                                                202                                        nl_69_nl   |                   -202(-100.0%)         
                                                                                                                                      sequential_4_sequential_3_dense_Dense2_MatMul   | 
------ --------------------------------------------------------------- ------------------------------ ----------------- ----------- ----------------------------------------------- --- ----------------- --------------------- ----------------------------- 
71     nl_71 (Nonlinearity, SOFTMAX)                                   [b:1,c:2]                                                 30                                         gemm_70   |                                         nl_oi8[83]                    
------ --------------------------------------------------------------- ------------------------------ ----------------- ----------- ----------------------------------------------- --- ----------------- --------------------- ----------------------------- 
72     conversion_72 (Conversion, QUANTIZE)                            [b:1,c:2]                                                  4                                           nl_71   |                                         converter_ou8[o][84]          
------ --------------------------------------------------------------- ------------------------------ ----------------- ----------- ----------------------------------------------- --- ----------------- --------------------- ----------------------------- 
model/c-model: macc=61,210,644/58,587,280 -2,623,364(-4.3%) weights=538,808/538,816 +8(+0.0%) activations=--/702,976 io=--/0



Generated C-graph summary
------------------------------------------------------------------------------------------------------------------------
model name            : vertu_horu
c-name                : network
c-node #              : 85
c-array #             : 284
activations size      : 702976 (1 segment)
weights size          : 538816 (1 segment)
macc                  : 58587280
inputs                : ['serving_default_sequential_1_input0_output']
outputs               : ['conversion_72_output']

C-Arrays (284)
------ -------------------------------------------- --------------- -------------------- --------------- --------------- --------- 
c_id   name (*_array)                               item/size       domain/mem-pool      c-type          fmt             comment   
------ -------------------------------------------- --------------- -------------------- --------------- --------------- --------- 
0      conv2d_30_output                             28224/28224     activations/extmem   int8_t          sa8                       
1      conv2d_13_scratch1                           150528/150528   activations/extmem   int8_t          sa8                       
2      conv2d_31_output                             4704/4704       activations/extmem   int8_t          sa8                       
3      eltwise_32_output                            4704/4704       activations/extmem   int8_t          sa8                       
4      conv2d_33_output                             28224/28224     activations/extmem   int8_t          sa8                       
5      conv2d_15_scratch0                           1777/1777       activations/extmem   int8_t          s8                        
6      conv2d_34_pad_before_output                  36864/36864     activations/extmem   int8_t          sa8                       
7      conv2d_34_output                             28224/28224     activations/extmem   int8_t          sa8                       
8      conv2d_15_scratch1                           37632/37632     activations/extmem   int8_t          sa8                       
9      conv2d_35_output                             4704/4704       activations/extmem   int8_t          sa8                       
10     eltwise_36_output                            4704/4704       activations/extmem   int8_t          sa8                       
11     conv2d_37_output                             28224/28224     activations/extmem   int8_t          sa8                       
12     conv2d_16_scratch0                           352/352         activations/extmem   int8_t          s8                        
13     conv2d_38_pad_before_output                  36864/36864     activations/extmem   int8_t          sa8                       
14     conv2d_38_output                             28224/28224     activations/extmem   int8_t          sa8                       
15     conv2d_39_output                             4704/4704       activations/extmem   int8_t          sa8                       
16     conv2d_17_scratch0                           1024/1024       activations/extmem   int8_t          s8                        
17     eltwise_40_output                            4704/4704       activations/extmem   int8_t          sa8                       
18     conv2d_41_output                             28224/28224     activations/extmem   int8_t          sa8                       
19     conv2d_17_scratch1                           75264/75264     activations/extmem   int8_t          sa8                       
20     conv2d_42_pad_before_output                  36864/36864     activations/extmem   int8_t          sa8                       
21     conv2d_42_output                             28224/28224     activations/extmem   int8_t          sa8                       
22     conv2d_43_output                             6272/6272       activations/extmem   int8_t          ss8                       
23     conv2d_18_scratch0                           3553/3553       activations/extmem   int8_t          s8                        
24     conv2d_44_output                             37632/37632     activations/extmem   int8_t          sa8                       
25     conv2d_45_pad_before_output                  49152/49152     activations/extmem   int8_t          sa8                       
26     conv2d_18_scratch1                           75264/75264     activations/extmem   int8_t          sa8                       
27     conv2d_45_output                             37632/37632     activations/extmem   int8_t          sa8                       
28     conv2d_46_output                             6272/6272       activations/extmem   int8_t          sa8                       
29     eltwise_47_output                            6272/6272       activations/extmem   int8_t          sa8                       
30     conv2d_19_scratch0                           544/544         activations/extmem   int8_t          s8                        
31     conv2d_48_output                             37632/37632     activations/extmem   int8_t          sa8                       
32     conv2d_49_pad_before_output                  49152/49152     activations/extmem   int8_t          sa8                       
33     conv2d_49_output                             37632/37632     activations/extmem   int8_t          sa8                       
34     conv2d_21_scratch0                           1024/1024       activations/extmem   int8_t          s8                        
35     conv2d_50_output                             6272/6272       activations/extmem   int8_t          sa8                       
36     eltwise_51_output                            6272/6272       activations/extmem   int8_t          sa8                       
37     conv2d_21_scratch1                           75264/75264     activations/extmem   int8_t          sa8                       
38     conv2d_52_output                             37632/37632     activations/extmem   int8_t          sa8                       
39     conv2d_54_pad_before_output                  43200/43200     activations/extmem   int8_t          sa8                       
40     conv2d_54_output                             9408/9408       activations/extmem   int8_t          sa8                       
41     conv2d_22_scratch0                           3553/3553       activations/extmem   int8_t          s8                        
42     conv2d_55_output                             2744/2744       activations/extmem   int8_t          sa8                       
43     conv2d_56_output                             16464/16464     activations/extmem   int8_t          sa8                       
44     conv2d_22_scratch1                           75264/75264     activations/extmem   int8_t          sa8                       
45     conv2d_57_pad_before_output                  27216/27216     activations/extmem   int8_t          sa8                       
46     conv2d_57_output                             16464/16464     activations/extmem   int8_t          sa8                       
47     conv2d_58_output                             2744/2744       activations/extmem   int8_t          sa8                       
48     conv2d_23_scratch0                           544/544         activations/extmem   int8_t          s8                        
49     eltwise_59_output                            2744/2744       activations/extmem   int8_t          sa8                       
50     conv2d_60_output                             16464/16464     activations/extmem   int8_t          sa8                       
51     conv2d_61_pad_before_output                  27216/27216     activations/extmem   int8_t          sa8                       
52     conv2d_25_scratch0                           1024/1024       activations/extmem   int8_t          s8                        
53     conv2d_61_output                             16464/16464     activations/extmem   int8_t          sa8                       
54     conv2d_62_output                             2744/2744       activations/extmem   int8_t          ss8                       
55     conv2d_25_scratch1                           75264/75264     activations/extmem   int8_t          sa8                       
56     eltwise_63_output                            2744/2744       activations/extmem   int8_t          sa8                       
57     conv2d_64_output                             16464/16464     activations/extmem   int8_t          sa8                       
58     conv2d_65_pad_before_output                  27216/27216     activations/extmem   int8_t          sa8                       
59     conv2d_27_scratch0                           3553/3553       activations/extmem   int8_t          s8                        
60     conv2d_65_output                             16464/16464     activations/extmem   int8_t          sa8                       
61     conv2d_66_output                             5488/5488       activations/extmem   int8_t          sa8                       
62     conv2d_27_scratch1                           18816/18816     activations/extmem   int8_t          sa8                       
63     conv2d_67_output                             62720/62720     activations/extmem   int8_t          sa8                       
64     pool_68_output                               1280/1280       activations/extmem   int8_t          sa8                       
65     gemm_69_output                               100/100         activations/extmem   int8_t          sa8                       
66     conv2d_28_scratch0                           624/624         activations/extmem   int8_t          s8                        
67     gemm_70_output                               2/2             activations/extmem   int8_t          sa8                       
68     nl_71_output                                 2/2             activations/extmem   int8_t          sa8                       
69     conversion_72_output                         2/2             activations/extmem   uint8_t         ua8             /output   
70     conv2d_29_scratch0                           1536/1536       activations/extmem   int8_t          s8                        
71     conv2d_2_weights                             432/432         weights/weights      const int8_t    ss8/ch(16)                
72     conv2d_29_scratch1                           28224/28224     activations/extmem   int8_t          sa8                       
73     conv2d_2_bias                                16/64           weights/weights      const int32_t   ss32/ch(16)               
74     conv2d_3_weights                             144/144         weights/weights      const int8_t    ss8/ch(16)                
75     conv2d_30_scratch0                           5329/5329       activations/extmem   int8_t          s8                        
76     conv2d_3_bias                                16/64           weights/weights      const int32_t   ss32/ch(16)               
77     conv2d_30_scratch1                           28224/28224     activations/extmem   int8_t          sa8                       
78     conv2d_4_weights                             128/128         weights/weights      const int8_t    ss8/ch(8)                 
79     conv2d_4_bias                                8/32            weights/weights      const int32_t   ss32/ch(8)                
80     conv2d_31_scratch0                           816/816         activations/extmem   int8_t          s8                        
81     conv2d_5_weights                             384/384         weights/weights      const int8_t    ss8/ch(48)                
82     conv2d_5_bias                                48/192          weights/weights      const int32_t   ss32/ch(48)               
83     conv2d_33_scratch0                           1536/1536       activations/extmem   int8_t          s8                        
84     conv2d_7_weights                             432/432         weights/weights      const int8_t    ss8/ch(48)                
85     conv2d_7_bias                                48/192          weights/weights      const int32_t   ss32/ch(48)               
86     conv2d_33_scratch1                           28224/28224     activations/extmem   int8_t          sa8                       
87     conv2d_8_weights                             384/384         weights/weights      const int8_t    ss8/ch(8)                 
88     conv2d_8_bias                                8/32            weights/weights      const int32_t   ss32/ch(8)                
89     conv2d_34_scratch0                           5329/5329       activations/extmem   int8_t          s8                        
90     conv2d_9_weights                             384/384         weights/weights      const int8_t    ss8/ch(48)                
91     conv2d_34_scratch1                           28224/28224     activations/extmem   int8_t          sa8                       
92     conv2d_9_bias                                48/192          weights/weights      const int32_t   ss32/ch(48)               
93     conv2d_10_weights                            432/432         weights/weights      const int8_t    ss8/ch(48)                
94     conv2d_35_scratch0                           816/816         activations/extmem   int8_t          s8                        
95     conv2d_10_bias                               48/192          weights/weights      const int32_t   ss32/ch(48)               
96     conv2d_11_weights                            384/384         weights/weights      const int8_t    ss8/ch(8)                 
97     conv2d_37_scratch0                           1536/1536       activations/extmem   int8_t          s8                        
98     conv2d_11_bias                               8/32            weights/weights      const int32_t   ss32/ch(8)                
99     conv2d_37_scratch1                           28224/28224     activations/extmem   int8_t          sa8                       
100    conv2d_13_weights                            384/384         weights/weights      const int8_t    ss8/ch(48)                
101    conv2d_13_bias                               48/192          weights/weights      const int32_t   ss32/ch(48)               
102    conv2d_38_scratch0                           5329/5329       activations/extmem   int8_t          s8                        
103    conv2d_15_weights                            432/432         weights/weights      const int8_t    ss8/ch(48)                
104    conv2d_15_bias                               48/192          weights/weights      const int32_t   ss32/ch(48)               
105    conv2d_38_scratch1                           28224/28224     activations/extmem   int8_t          sa8                       
106    conv2d_16_weights                            768/768         weights/weights      const int8_t    ss8/ch(16)                
107    conv2d_16_bias                               16/64           weights/weights      const int32_t   ss32/ch(16)               
108    conv2d_39_scratch0                           816/816         activations/extmem   int8_t          s8                        
109    conv2d_17_weights                            1536/1536       weights/weights      const int8_t    ss8/ch(96)                
110    conv2d_17_bias                               96/384          weights/weights      const int32_t   ss32/ch(96)               
111    conv2d_41_scratch0                           1536/1536       activations/extmem   int8_t          s8                        
112    conv2d_18_weights                            864/864         weights/weights      const int8_t    ss8/ch(96)                
113    conv2d_41_scratch1                           28224/28224     activations/extmem   int8_t          sa8                       
114    conv2d_18_bias                               96/384          weights/weights      const int32_t   ss32/ch(96)               
115    conv2d_19_weights                            1536/1536       weights/weights      const int8_t    ss8/ch(16)                
116    conv2d_42_scratch0                           5329/5329       activations/extmem   int8_t          s8                        
117    conv2d_19_bias                               16/64           weights/weights      const int32_t   ss32/ch(16)               
118    conv2d_42_scratch1                           28224/28224     activations/extmem   int8_t          sa8                       
119    conv2d_21_weights                            1536/1536       weights/weights      const int8_t    ss8/ch(96)                
120    conv2d_21_bias                               96/384          weights/weights      const int32_t   ss32/ch(96)               
121    conv2d_43_scratch0                           896/896         activations/extmem   int8_t          s8                        
122    conv2d_22_weights                            864/864         weights/weights      const int8_t    ss8/ch(96)                
123    conv2d_22_bias                               96/384          weights/weights      const int32_t   ss32/ch(96)               
124    conv2d_44_scratch0                           2048/2048       activations/extmem   int8_t          s8                        
125    conv2d_23_weights                            1536/1536       weights/weights      const int8_t    ss8/ch(16)                
126    conv2d_23_bias                               16/64           weights/weights      const int32_t   ss32/ch(16)               
127    conv2d_44_scratch1                           37632/37632     activations/extmem   int8_t          sa8                       
128    conv2d_25_weights                            1536/1536       weights/weights      const int8_t    ss8/ch(96)                
129    conv2d_25_bias                               96/384          weights/weights      const int32_t   ss32/ch(96)               
130    conv2d_45_scratch0                           7105/7105       activations/extmem   int8_t          s8                        
131    conv2d_27_weights                            864/864         weights/weights      const int8_t    ss8/ch(96)                
132    conv2d_45_scratch1                           37632/37632     activations/extmem   int8_t          sa8                       
133    conv2d_27_bias                               96/384          weights/weights      const int32_t   ss32/ch(96)               
134    conv2d_28_weights                            2304/2304       weights/weights      const int8_t    ss8/ch(24)                
135    conv2d_46_scratch0                           1088/1088       activations/extmem   int8_t          s8                        
136    conv2d_28_bias                               24/96           weights/weights      const int32_t   ss32/ch(24)               
137    conv2d_29_weights                            3456/3456       weights/weights      const int8_t    ss8/ch(144)               
138    conv2d_48_scratch0                           2048/2048       activations/extmem   int8_t          s8                        
139    conv2d_29_bias                               144/576         weights/weights      const int32_t   ss32/ch(144)              
140    conv2d_48_scratch1                           37632/37632     activations/extmem   int8_t          sa8                       
141    conv2d_30_weights                            1296/1296       weights/weights      const int8_t    ss8/ch(144)               
142    conv2d_30_bias                               144/576         weights/weights      const int32_t   ss32/ch(144)              
143    conv2d_49_scratch0                           7105/7105       activations/extmem   int8_t          s8                        
144    conv2d_31_weights                            3456/3456       weights/weights      const int8_t    ss8/ch(24)                
145    conv2d_31_bias                               24/96           weights/weights      const int32_t   ss32/ch(24)               
146    conv2d_49_scratch1                           37632/37632     activations/extmem   int8_t          sa8                       
147    conv2d_33_weights                            3456/3456       weights/weights      const int8_t    ss8/ch(144)               
148    conv2d_33_bias                               144/576         weights/weights      const int32_t   ss32/ch(144)              
149    conv2d_50_scratch0                           1088/1088       activations/extmem   int8_t          s8                        
150    conv2d_34_weights                            1296/1296       weights/weights      const int8_t    ss8/ch(144)               
151    conv2d_34_bias                               144/576         weights/weights      const int32_t   ss32/ch(144)              
152    conv2d_52_scratch0                           2048/2048       activations/extmem   int8_t          s8                        
153    conv2d_35_weights                            3456/3456       weights/weights      const int8_t    ss8/ch(24)                
154    conv2d_52_scratch1                           37632/37632     activations/extmem   int8_t          sa8                       
155    conv2d_35_bias                               24/96           weights/weights      const int32_t   ss32/ch(24)               
156    conv2d_37_weights                            3456/3456       weights/weights      const int8_t    ss8/ch(144)               
157    conv2d_54_scratch0                           7105/7105       activations/extmem   int8_t          s8                        
158    conv2d_37_bias                               144/576         weights/weights      const int32_t   ss32/ch(144)              
159    conv2d_54_scratch1                           9408/9408       activations/extmem   int8_t          sa8                       
160    conv2d_38_weights                            1296/1296       weights/weights      const int8_t    ss8/ch(144)               
161    conv2d_38_bias                               144/576         weights/weights      const int32_t   ss32/ch(144)              
162    conv2d_55_scratch0                           1328/1328       activations/extmem   int8_t          s8                        
163    conv2d_39_weights                            3456/3456       weights/weights      const int8_t    ss8/ch(24)                
164    conv2d_39_bias                               24/96           weights/weights      const int32_t   ss32/ch(24)               
165    conv2d_56_scratch0                           3584/3584       activations/extmem   int8_t          s8                        
166    conv2d_41_weights                            3456/3456       weights/weights      const int8_t    ss8/ch(144)               
167    conv2d_41_bias                               144/576         weights/weights      const int32_t   ss32/ch(144)              
168    conv2d_56_scratch1                           16464/16464     activations/extmem   int8_t          sa8                       
169    conv2d_42_weights                            1296/1296       weights/weights      const int8_t    ss8/ch(144)               
170    conv2d_42_bias                               144/576         weights/weights      const int32_t   ss32/ch(144)              
171    conv2d_57_scratch0                           12433/12433     activations/extmem   int8_t          s8                        
172    conv2d_43_weights                            4608/4608       weights/weights      const int8_t    ss8/ch(32)                
173    conv2d_57_scratch1                           16464/16464     activations/extmem   int8_t          sa8                       
174    conv2d_43_bias                               32/128          weights/weights      const int32_t   ss32/ch(32)               
175    conv2d_44_weights                            6144/6144       weights/weights      const int8_t    ss8/ch(192)               
176    conv2d_58_scratch0                           1904/1904       activations/extmem   int8_t          s8                        
177    conv2d_44_bias                               192/768         weights/weights      const int32_t   ss32/ch(192)              
178    conv2d_45_weights                            1728/1728       weights/weights      const int8_t    ss8/ch(192)               
179    conv2d_60_scratch0                           3584/3584       activations/extmem   int8_t          s8                        
180    conv2d_45_bias                               192/768         weights/weights      const int32_t   ss32/ch(192)              
181    conv2d_60_scratch1                           16464/16464     activations/extmem   int8_t          sa8                       
182    conv2d_46_weights                            6144/6144       weights/weights      const int8_t    ss8/ch(32)                
183    conv2d_46_bias                               32/128          weights/weights      const int32_t   ss32/ch(32)               
184    conv2d_61_scratch0                           12433/12433     activations/extmem   int8_t          s8                        
185    conv2d_48_weights                            6144/6144       weights/weights      const int8_t    ss8/ch(192)               
186    conv2d_48_bias                               192/768         weights/weights      const int32_t   ss32/ch(192)              
187    conv2d_61_scratch1                           16464/16464     activations/extmem   int8_t          sa8                       
188    conv2d_49_weights                            1728/1728       weights/weights      const int8_t    ss8/ch(192)               
189    conv2d_49_bias                               192/768         weights/weights      const int32_t   ss32/ch(192)              
190    conv2d_62_scratch0                           1904/1904       activations/extmem   int8_t          s8                        
191    conv2d_50_weights                            6144/6144       weights/weights      const int8_t    ss8/ch(32)                
192    conv2d_50_bias                               32/128          weights/weights      const int32_t   ss32/ch(32)               
193    conv2d_64_scratch0                           3584/3584       activations/extmem   int8_t          s8                        
194    conv2d_52_weights                            6144/6144       weights/weights      const int8_t    ss8/ch(192)               
195    conv2d_64_scratch1                           16464/16464     activations/extmem   int8_t          sa8                       
196    conv2d_52_bias                               192/768         weights/weights      const int32_t   ss32/ch(192)              
197    conv2d_54_weights                            1728/1728       weights/weights      const int8_t    ss8/ch(192)               
198    conv2d_65_scratch0                           12433/12433     activations/extmem   int8_t          s8                        
199    conv2d_54_bias                               192/768         weights/weights      const int32_t   ss32/ch(192)              
200    conv2d_65_scratch1                           16464/16464     activations/extmem   int8_t          sa8                       
201    conv2d_55_weights                            10752/10752     weights/weights      const int8_t    ss8/ch(56)                
202    conv2d_55_bias                               56/224          weights/weights      const int32_t   ss32/ch(56)               
203    conv2d_66_scratch0                           2464/2464       activations/extmem   int8_t          s8                        
204    conv2d_56_weights                            18816/18816     weights/weights      const int8_t    ss8/ch(336)               
205    conv2d_56_bias                               336/1344        weights/weights      const int32_t   ss32/ch(336)              
206    conv2d_67_scratch0                           13248/13248     activations/extmem   int8_t          s8                        
207    conv2d_57_weights                            3024/3024       weights/weights      const int8_t    ss8/ch(336)               
208    conv2d_57_bias                               336/1344        weights/weights      const int32_t   ss32/ch(336)              
209    conv2d_67_scratch1                           62720/62720     activations/extmem   int8_t          sa8                       
210    conv2d_58_weights                            18816/18816     weights/weights      const int8_t    ss8/ch(56)                
211    conv2d_58_bias                               56/224          weights/weights      const int32_t   ss32/ch(56)               
212    gemm_69_scratch0                             1280/2560       activations/extmem   int16_t         s16                       
213    conv2d_60_weights                            18816/18816     weights/weights      const int8_t    ss8/ch(336)               
214    conv2d_60_bias                               336/1344        weights/weights      const int32_t   ss32/ch(336)              
215    gemm_70_scratch0                             100/200         activations/extmem   int16_t         s16                       
216    conv2d_61_weights                            3024/3024       weights/weights      const int8_t    ss8/ch(336)               
217    conv2d_61_bias                               336/1344        weights/weights      const int32_t   ss32/ch(336)              
218    nl_71_scratch0                               2/8             activations/extmem   int32_t         s32                       
219    conv2d_62_weights                            18816/18816     weights/weights      const int8_t    ss8/ch(56)                
220    conv2d_62_bias                               56/224          weights/weights      const int32_t   ss32/ch(56)               
221    conv2d_64_weights                            18816/18816     weights/weights      const int8_t    ss8/ch(336)               
222    conv2d_64_bias                               336/1344        weights/weights      const int32_t   ss32/ch(336)              
223    conv2d_65_weights                            3024/3024       weights/weights      const int8_t    ss8/ch(336)               
224    conv2d_65_bias                               336/1344        weights/weights      const int32_t   ss32/ch(336)              
225    conv2d_66_weights                            37632/37632     weights/weights      const int8_t    ss8/ch(112)               
226    conv2d_66_bias                               112/448         weights/weights      const int32_t   ss32/ch(112)              
227    conv2d_67_weights                            143360/143360   weights/weights      const int8_t    ss8/ch(1280)              
228    conv2d_67_bias                               1280/5120       weights/weights      const int32_t   ss32/ch(1280)             
229    gemm_69_weights                              128000/128000   weights/weights      const int8_t    ss8                       
230    gemm_69_bias                                 100/400         weights/weights      const int32_t   ss32                      
231    gemm_70_weights                              200/200         weights/weights      const int8_t    ss8                       
232    gemm_70_bias                                 2/8             weights/weights      const int32_t   ss32                      
233    conv2d_2_scratch0                            1196/1196       activations/extmem   int8_t          s8                        
234    conv2d_2_scratch1                            200704/200704   activations/extmem   int8_t          sa8                       
235    conv2d_3_scratch0                            593/593         activations/extmem   int8_t          s8                        
236    serving_default_sequential_1_input0_output   150528/150528   activations/extmem   uint8_t         ua8             /input    
237    conversion_0_output                          150528/150529   activations/extmem   int8_t          sa8                       
238    conv2d_3_scratch1                            200704/200704   activations/extmem   int8_t          sa8                       
239    conv2d_2_output                              200704/200704   activations/extmem   int8_t          sa8                       
240    conv2d_3_pad_before_output                   207936/207936   activations/extmem   int8_t          sa8                       
241    conv2d_3_output                              200704/200704   activations/extmem   int8_t          sa8                       
242    conv2d_4_scratch0                            144/144         activations/extmem   int8_t          s8                        
243    conv2d_4_output                              100352/100352   activations/extmem   int8_t          sa8                       
244    conv2d_5_output                              602112/602112   activations/extmem   int8_t          sa8                       
245    conv2d_7_pad_before_output                   612912/612912   activations/extmem   int8_t          sa8                       
246    conv2d_5_scratch0                            512/512         activations/extmem   int8_t          s8                        
247    conv2d_7_output                              150528/150528   activations/extmem   int8_t          sa8                       
248    conv2d_8_output                              25088/25088     activations/extmem   int8_t          sa8                       
249    conv2d_5_scratch1                            602112/602112   activations/extmem   int8_t          sa8                       
250    conv2d_9_output                              150528/150528   activations/extmem   int8_t          sa8                       
251    conv2d_10_pad_before_output                  161472/161472   activations/extmem   int8_t          sa8                       
252    conv2d_10_output                             150528/150528   activations/extmem   int8_t          sa8                       
253    conv2d_7_scratch0                            1777/1777       activations/extmem   int8_t          s8                        
254    conv2d_11_output                             25088/25088     activations/extmem   int8_t          sa8                       
255    eltwise_12_output                            25088/25088     activations/extmem   int8_t          sa8                       
256    conv2d_7_scratch1                            150528/150528   activations/extmem   int8_t          sa8                       
257    conv2d_13_output                             150528/150528   activations/extmem   int8_t          sa8                       
258    conv2d_15_pad_before_output                  155952/155952   activations/extmem   int8_t          sa8                       
259    conv2d_15_output                             37632/37632     activations/extmem   int8_t          sa8                       
260    conv2d_8_scratch0                            272/272         activations/extmem   int8_t          s8                        
261    conv2d_16_output                             12544/12544     activations/extmem   int8_t          sa8                       
262    conv2d_17_output                             75264/75264     activations/extmem   int8_t          sa8                       
263    conv2d_18_pad_before_output                  86400/86400     activations/extmem   int8_t          sa8                       
264    conv2d_9_scratch0                            512/512         activations/extmem   int8_t          s8                        
265    conv2d_18_output                             75264/75264     activations/extmem   int8_t          sa8                       
266    conv2d_19_output                             12544/12544     activations/extmem   int8_t          sa8                       
267    conv2d_9_scratch1                            150528/150528   activations/extmem   int8_t          sa8                       
268    eltwise_20_output                            12544/12544     activations/extmem   int8_t          sa8                       
269    conv2d_21_output                             75264/75264     activations/extmem   int8_t          sa8                       
270    conv2d_22_pad_before_output                  86400/86400     activations/extmem   int8_t          sa8                       
271    conv2d_10_scratch0                           1777/1777       activations/extmem   int8_t          s8                        
272    conv2d_22_output                             75264/75264     activations/extmem   int8_t          sa8                       
273    conv2d_23_output                             12544/12544     activations/extmem   int8_t          sa8                       
274    conv2d_10_scratch1                           150528/150528   activations/extmem   int8_t          sa8                       
275    eltwise_24_output                            12544/12544     activations/extmem   int8_t          sa8                       
276    conv2d_25_output                             75264/75264     activations/extmem   int8_t          sa8                       
277    conv2d_27_pad_before_output                  80736/80736     activations/extmem   int8_t          sa8                       
278    conv2d_11_scratch0                           272/272         activations/extmem   int8_t          s8                        
279    conv2d_27_output                             18816/18816     activations/extmem   int8_t          sa8                       
280    conv2d_28_output                             4704/4704       activations/extmem   int8_t          sa8                       
281    conv2d_29_output                             28224/28224     activations/extmem   int8_t          sa8                       
282    conv2d_13_scratch0                           512/512         activations/extmem   int8_t          s8                        
283    conv2d_30_pad_before_output                  36864/36864     activations/extmem   int8_t          sa8                       
------ -------------------------------------------- --------------- -------------------- --------------- --------------- --------- 

C-Layers (85)
------ ---------------------- ---- ---------------------- --------- -------- ----------------------------------------------- ---------------------- 
c_id   name (*_layer)         id   layer_type             macc      rom      tensors                                         shape (array id)       
------ ---------------------- ---- ---------------------- --------- -------- ----------------------------------------------- ---------------------- 
0      conversion_0           0    converter              301056    0        I: serving_default_sequential_1_input0_output   (1,224,224,3) (236)    
                                                                             O: conversion_0_output                          (1,224,224,3) (237)    
------ ---------------------- ---- ---------------------- --------- -------- ----------------------------------------------- ---------------------- 
1      conv2d_2               2    optimized_conv2d       5419024   496      I: conversion_0_output                          (1,224,224,3) (237)    
                                                                             S: conv2d_2_scratch0                                                   
                                                                             S: conv2d_2_scratch1                                                   
                                                                             W: conv2d_2_weights                             (3,3,3,16) (71)        
                                                                             W: conv2d_2_bias                                (16,) (73)             
                                                                             O: conv2d_2_output                              (1,112,112,16) (239)   
------ ---------------------- ---- ---------------------- --------- -------- ----------------------------------------------- ---------------------- 
2      conv2d_3_pad_before    3    pad                    0         0        I: conv2d_2_output                              (1,112,112,16) (239)   
                                                                             O: conv2d_3_pad_before_output                   (1,114,114,16) (240)   
------ ---------------------- ---- ---------------------- --------- -------- ----------------------------------------------- ---------------------- 
3      conv2d_3               3    conv2d                 1806352   208      I: conv2d_3_pad_before_output                   (1,114,114,16) (240)   
                                                                             S: conv2d_3_scratch0                                                   
                                                                             S: conv2d_3_scratch1                                                   
                                                                             W: conv2d_3_weights                             (16,3,3,1) (74)        
                                                                             W: conv2d_3_bias                                (16,) (76)             
                                                                             O: conv2d_3_output                              (1,112,112,16) (241)   
------ ---------------------- ---- ---------------------- --------- -------- ----------------------------------------------- ---------------------- 
4      conv2d_4               4    conv2d                 1605640   160      I: conv2d_3_output                              (1,112,112,16) (241)   
                                                                             S: conv2d_4_scratch0                                                   
                                                                             W: conv2d_4_weights                             (16,1,1,8) (78)        
                                                                             W: conv2d_4_bias                                (8,) (79)              
                                                                             O: conv2d_4_output                              (1,112,112,8) (243)    
------ ---------------------- ---- ---------------------- --------- -------- ----------------------------------------------- ---------------------- 
5      conv2d_5               5    conv2d                 4816944   576      I: conv2d_4_output                              (1,112,112,8) (243)    
                                                                             S: conv2d_5_scratch0                                                   
                                                                             S: conv2d_5_scratch1                                                   
                                                                             W: conv2d_5_weights                             (8,1,1,48) (81)        
                                                                             W: conv2d_5_bias                                (48,) (82)             
                                                                             O: conv2d_5_output                              (1,112,112,48) (244)   
------ ---------------------- ---- ---------------------- --------- -------- ----------------------------------------------- ---------------------- 
6      conv2d_7_pad_before    7    pad                    0         0        I: conv2d_5_output                              (1,112,112,48) (244)   
                                                                             O: conv2d_7_pad_before_output                   (1,113,113,48) (245)   
------ ---------------------- ---- ---------------------- --------- -------- ----------------------------------------------- ---------------------- 
7      conv2d_7               6    conv2d                 1354800   624      I: conv2d_7_pad_before_output                   (1,113,113,48) (245)   
                                                                             S: conv2d_7_scratch0                                                   
                                                                             S: conv2d_7_scratch1                                                   
                                                                             W: conv2d_7_weights                             (48,3,3,1) (84)        
                                                                             W: conv2d_7_bias                                (48,) (85)             
                                                                             O: conv2d_7_output                              (1,56,56,48) (247)     
------ ---------------------- ---- ---------------------- --------- -------- ----------------------------------------------- ---------------------- 
8      conv2d_8               8    conv2d                 1204232   416      I: conv2d_7_output                              (1,56,56,48) (247)     
                                                                             S: conv2d_8_scratch0                                                   
                                                                             W: conv2d_8_weights                             (48,1,1,8) (87)        
                                                                             W: conv2d_8_bias                                (8,) (88)              
                                                                             O: conv2d_8_output                              (1,56,56,8) (248)      
------ ---------------------- ---- ---------------------- --------- -------- ----------------------------------------------- ---------------------- 
9      conv2d_9               9    conv2d                 1204272   576      I: conv2d_8_output                              (1,56,56,8) (248)      
                                                                             S: conv2d_9_scratch0                                                   
                                                                             S: conv2d_9_scratch1                                                   
                                                                             W: conv2d_9_weights                             (8,1,1,48) (90)        
                                                                             W: conv2d_9_bias                                (48,) (92)             
                                                                             O: conv2d_9_output                              (1,56,56,48) (250)     
------ ---------------------- ---- ---------------------- --------- -------- ----------------------------------------------- ---------------------- 
10     conv2d_10_pad_before   10   pad                    0         0        I: conv2d_9_output                              (1,56,56,48) (250)     
                                                                             O: conv2d_10_pad_before_output                  (1,58,58,48) (251)     
------ ---------------------- ---- ---------------------- --------- -------- ----------------------------------------------- ---------------------- 
11     conv2d_10              10   conv2d                 1354800   624      I: conv2d_10_pad_before_output                  (1,58,58,48) (251)     
                                                                             S: conv2d_10_scratch0                                                  
                                                                             S: conv2d_10_scratch1                                                  
                                                                             W: conv2d_10_weights                            (48,3,3,1) (93)        
                                                                             W: conv2d_10_bias                               (48,) (95)             
                                                                             O: conv2d_10_output                             (1,56,56,48) (252)     
------ ---------------------- ---- ---------------------- --------- -------- ----------------------------------------------- ---------------------- 
12     conv2d_11              11   conv2d                 1204232   416      I: conv2d_10_output                             (1,56,56,48) (252)     
                                                                             S: conv2d_11_scratch0                                                  
                                                                             W: conv2d_11_weights                            (48,1,1,8) (96)        
                                                                             W: conv2d_11_bias                               (8,) (98)              
                                                                             O: conv2d_11_output                             (1,56,56,8) (254)      
------ ---------------------- ---- ---------------------- --------- -------- ----------------------------------------------- ---------------------- 
13     eltwise_12             12   eltwise_integer/sum    25088     0        I: conv2d_8_output                              (1,56,56,8) (248)      
                                                                             I: conv2d_11_output                             (1,56,56,8) (254)      
                                                                             O: eltwise_12_output                            (1,56,56,8) (255)      
------ ---------------------- ---- ---------------------- --------- -------- ----------------------------------------------- ---------------------- 
14     conv2d_13              13   conv2d                 1204272   576      I: eltwise_12_output                            (1,56,56,8) (255)      
                                                                             S: conv2d_13_scratch0                                                  
                                                                             S: conv2d_13_scratch1                                                  
                                                                             W: conv2d_13_weights                            (8,1,1,48) (100)       
                                                                             W: conv2d_13_bias                               (48,) (101)            
                                                                             O: conv2d_13_output                             (1,56,56,48) (257)     
------ ---------------------- ---- ---------------------- --------- -------- ----------------------------------------------- ---------------------- 
15     conv2d_15_pad_before   15   pad                    0         0        I: conv2d_13_output                             (1,56,56,48) (257)     
                                                                             O: conv2d_15_pad_before_output                  (1,57,57,48) (258)     
------ ---------------------- ---- ---------------------- --------- -------- ----------------------------------------------- ---------------------- 
16     conv2d_15              14   conv2d                 338736    624      I: conv2d_15_pad_before_output                  (1,57,57,48) (258)     
                                                                             S: conv2d_15_scratch0                                                  
                                                                             S: conv2d_15_scratch1                                                  
                                                                             W: conv2d_15_weights                            (48,3,3,1) (103)       
                                                                             W: conv2d_15_bias                               (48,) (104)            
                                                                             O: conv2d_15_output                             (1,28,28,48) (259)     
------ ---------------------- ---- ---------------------- --------- -------- ----------------------------------------------- ---------------------- 
17     conv2d_16              16   conv2d                 602128    832      I: conv2d_15_output                             (1,28,28,48) (259)     
                                                                             S: conv2d_16_scratch0                                                  
                                                                             W: conv2d_16_weights                            (48,1,1,16) (106)      
                                                                             W: conv2d_16_bias                               (16,) (107)            
                                                                             O: conv2d_16_output                             (1,28,28,16) (261)     
------ ---------------------- ---- ---------------------- --------- -------- ----------------------------------------------- ---------------------- 
18     conv2d_17              17   conv2d                 1204320   1920     I: conv2d_16_output                             (1,28,28,16) (261)     
                                                                             S: conv2d_17_scratch0                                                  
                                                                             S: conv2d_17_scratch1                                                  
                                                                             W: conv2d_17_weights                            (16,1,1,96) (109)      
                                                                             W: conv2d_17_bias                               (96,) (110)            
                                                                             O: conv2d_17_output                             (1,28,28,96) (262)     
------ ---------------------- ---- ---------------------- --------- -------- ----------------------------------------------- ---------------------- 
19     conv2d_18_pad_before   18   pad                    0         0        I: conv2d_17_output                             (1,28,28,96) (262)     
                                                                             O: conv2d_18_pad_before_output                  (1,30,30,96) (263)     
------ ---------------------- ---- ---------------------- --------- -------- ----------------------------------------------- ---------------------- 
20     conv2d_18              18   conv2d                 677472    1248     I: conv2d_18_pad_before_output                  (1,30,30,96) (263)     
                                                                             S: conv2d_18_scratch0                                                  
                                                                             S: conv2d_18_scratch1                                                  
                                                                             W: conv2d_18_weights                            (96,3,3,1) (112)       
                                                                             W: conv2d_18_bias                               (96,) (114)            
                                                                             O: conv2d_18_output                             (1,28,28,96) (265)     
------ ---------------------- ---- ---------------------- --------- -------- ----------------------------------------------- ---------------------- 
21     conv2d_19              19   conv2d                 1204240   1600     I: conv2d_18_output                             (1,28,28,96) (265)     
                                                                             S: conv2d_19_scratch0                                                  
                                                                             W: conv2d_19_weights                            (96,1,1,16) (115)      
                                                                             W: conv2d_19_bias                               (16,) (117)            
                                                                             O: conv2d_19_output                             (1,28,28,16) (266)     
------ ---------------------- ---- ---------------------- --------- -------- ----------------------------------------------- ---------------------- 
22     eltwise_20             20   eltwise_integer/sum    12544     0        I: conv2d_16_output                             (1,28,28,16) (261)     
                                                                             I: conv2d_19_output                             (1,28,28,16) (266)     
                                                                             O: eltwise_20_output                            (1,28,28,16) (268)     
------ ---------------------- ---- ---------------------- --------- -------- ----------------------------------------------- ---------------------- 
23     conv2d_21              21   conv2d                 1204320   1920     I: eltwise_20_output                            (1,28,28,16) (268)     
                                                                             S: conv2d_21_scratch0                                                  
                                                                             S: conv2d_21_scratch1                                                  
                                                                             W: conv2d_21_weights                            (16,1,1,96) (119)      
                                                                             W: conv2d_21_bias                               (96,) (120)            
                                                                             O: conv2d_21_output                             (1,28,28,96) (269)     
------ ---------------------- ---- ---------------------- --------- -------- ----------------------------------------------- ---------------------- 
24     conv2d_22_pad_before   22   pad                    0         0        I: conv2d_21_output                             (1,28,28,96) (269)     
                                                                             O: conv2d_22_pad_before_output                  (1,30,30,96) (270)     
------ ---------------------- ---- ---------------------- --------- -------- ----------------------------------------------- ---------------------- 
25     conv2d_22              22   conv2d                 677472    1248     I: conv2d_22_pad_before_output                  (1,30,30,96) (270)     
                                                                             S: conv2d_22_scratch0                                                  
                                                                             S: conv2d_22_scratch1                                                  
                                                                             W: conv2d_22_weights                            (96,3,3,1) (122)       
                                                                             W: conv2d_22_bias                               (96,) (123)            
                                                                             O: conv2d_22_output                             (1,28,28,96) (272)     
------ ---------------------- ---- ---------------------- --------- -------- ----------------------------------------------- ---------------------- 
26     conv2d_23              23   conv2d                 1204240   1600     I: conv2d_22_output                             (1,28,28,96) (272)     
                                                                             S: conv2d_23_scratch0                                                  
                                                                             W: conv2d_23_weights                            (96,1,1,16) (125)      
                                                                             W: conv2d_23_bias                               (16,) (126)            
                                                                             O: conv2d_23_output                             (1,28,28,16) (273)     
------ ---------------------- ---- ---------------------- --------- -------- ----------------------------------------------- ---------------------- 
27     eltwise_24             24   eltwise_integer/sum    12544     0        I: eltwise_20_output                            (1,28,28,16) (268)     
                                                                             I: conv2d_23_output                             (1,28,28,16) (273)     
                                                                             O: eltwise_24_output                            (1,28,28,16) (275)     
------ ---------------------- ---- ---------------------- --------- -------- ----------------------------------------------- ---------------------- 
28     conv2d_25              25   conv2d                 1204320   1920     I: eltwise_24_output                            (1,28,28,16) (275)     
                                                                             S: conv2d_25_scratch0                                                  
                                                                             S: conv2d_25_scratch1                                                  
                                                                             W: conv2d_25_weights                            (16,1,1,96) (128)      
                                                                             W: conv2d_25_bias                               (96,) (129)            
                                                                             O: conv2d_25_output                             (1,28,28,96) (276)     
------ ---------------------- ---- ---------------------- --------- -------- ----------------------------------------------- ---------------------- 
29     conv2d_27_pad_before   27   pad                    0         0        I: conv2d_25_output                             (1,28,28,96) (276)     
                                                                             O: conv2d_27_pad_before_output                  (1,29,29,96) (277)     
------ ---------------------- ---- ---------------------- --------- -------- ----------------------------------------------- ---------------------- 
30     conv2d_27              26   conv2d                 169440    1248     I: conv2d_27_pad_before_output                  (1,29,29,96) (277)     
                                                                             S: conv2d_27_scratch0                                                  
                                                                             S: conv2d_27_scratch1                                                  
                                                                             W: conv2d_27_weights                            (96,3,3,1) (131)       
                                                                             W: conv2d_27_bias                               (96,) (133)            
                                                                             O: conv2d_27_output                             (1,14,14,96) (279)     
------ ---------------------- ---- ---------------------- --------- -------- ----------------------------------------------- ---------------------- 
31     conv2d_28              28   conv2d                 451608    2400     I: conv2d_27_output                             (1,14,14,96) (279)     
                                                                             S: conv2d_28_scratch0                                                  
                                                                             W: conv2d_28_weights                            (96,1,1,24) (134)      
                                                                             W: conv2d_28_bias                               (24,) (136)            
                                                                             O: conv2d_28_output                             (1,14,14,24) (280)     
------ ---------------------- ---- ---------------------- --------- -------- ----------------------------------------------- ---------------------- 
32     conv2d_29              29   conv2d                 677520    4032     I: conv2d_28_output                             (1,14,14,24) (280)     
                                                                             S: conv2d_29_scratch0                                                  
                                                                             S: conv2d_29_scratch1                                                  
                                                                             W: conv2d_29_weights                            (24,1,1,144) (137)     
                                                                             W: conv2d_29_bias                               (144,) (139)           
                                                                             O: conv2d_29_output                             (1,14,14,144) (281)    
------ ---------------------- ---- ---------------------- --------- -------- ----------------------------------------------- ---------------------- 
33     conv2d_30_pad_before   30   pad                    0         0        I: conv2d_29_output                             (1,14,14,144) (281)    
                                                                             O: conv2d_30_pad_before_output                  (1,16,16,144) (283)    
------ ---------------------- ---- ---------------------- --------- -------- ----------------------------------------------- ---------------------- 
34     conv2d_30              30   conv2d                 254160    1872     I: conv2d_30_pad_before_output                  (1,16,16,144) (283)    
                                                                             S: conv2d_30_scratch0                                                  
                                                                             S: conv2d_30_scratch1                                                  
                                                                             W: conv2d_30_weights                            (144,3,3,1) (141)      
                                                                             W: conv2d_30_bias                               (144,) (142)           
                                                                             O: conv2d_30_output                             (1,14,14,144) (0)      
------ ---------------------- ---- ---------------------- --------- -------- ----------------------------------------------- ---------------------- 
35     conv2d_31              31   conv2d                 677400    3552     I: conv2d_30_output                             (1,14,14,144) (0)      
                                                                             S: conv2d_31_scratch0                                                  
                                                                             W: conv2d_31_weights                            (144,1,1,24) (144)     
                                                                             W: conv2d_31_bias                               (24,) (145)            
                                                                             O: conv2d_31_output                             (1,14,14,24) (2)       
------ ---------------------- ---- ---------------------- --------- -------- ----------------------------------------------- ---------------------- 
36     eltwise_32             32   eltwise_integer/sum    4704      0        I: conv2d_28_output                             (1,14,14,24) (280)     
                                                                             I: conv2d_31_output                             (1,14,14,24) (2)       
                                                                             O: eltwise_32_output                            (1,14,14,24) (3)       
------ ---------------------- ---- ---------------------- --------- -------- ----------------------------------------------- ---------------------- 
37     conv2d_33              33   conv2d                 677520    4032     I: eltwise_32_output                            (1,14,14,24) (3)       
                                                                             S: conv2d_33_scratch0                                                  
                                                                             S: conv2d_33_scratch1                                                  
                                                                             W: conv2d_33_weights                            (24,1,1,144) (147)     
                                                                             W: conv2d_33_bias                               (144,) (148)           
                                                                             O: conv2d_33_output                             (1,14,14,144) (4)      
------ ---------------------- ---- ---------------------- --------- -------- ----------------------------------------------- ---------------------- 
38     conv2d_34_pad_before   34   pad                    0         0        I: conv2d_33_output                             (1,14,14,144) (4)      
                                                                             O: conv2d_34_pad_before_output                  (1,16,16,144) (6)      
------ ---------------------- ---- ---------------------- --------- -------- ----------------------------------------------- ---------------------- 
39     conv2d_34              34   conv2d                 254160    1872     I: conv2d_34_pad_before_output                  (1,16,16,144) (6)      
                                                                             S: conv2d_34_scratch0                                                  
                                                                             S: conv2d_34_scratch1                                                  
                                                                             W: conv2d_34_weights                            (144,3,3,1) (150)      
                                                                             W: conv2d_34_bias                               (144,) (151)           
                                                                             O: conv2d_34_output                             (1,14,14,144) (7)      
------ ---------------------- ---- ---------------------- --------- -------- ----------------------------------------------- ---------------------- 
40     conv2d_35              35   conv2d                 677400    3552     I: conv2d_34_output                             (1,14,14,144) (7)      
                                                                             S: conv2d_35_scratch0                                                  
                                                                             W: conv2d_35_weights                            (144,1,1,24) (153)     
                                                                             W: conv2d_35_bias                               (24,) (155)            
                                                                             O: conv2d_35_output                             (1,14,14,24) (9)       
------ ---------------------- ---- ---------------------- --------- -------- ----------------------------------------------- ---------------------- 
41     eltwise_36             36   eltwise_integer/sum    4704      0        I: eltwise_32_output                            (1,14,14,24) (3)       
                                                                             I: conv2d_35_output                             (1,14,14,24) (9)       
                                                                             O: eltwise_36_output                            (1,14,14,24) (10)      
------ ---------------------- ---- ---------------------- --------- -------- ----------------------------------------------- ---------------------- 
42     conv2d_37              37   conv2d                 677520    4032     I: eltwise_36_output                            (1,14,14,24) (10)      
                                                                             S: conv2d_37_scratch0                                                  
                                                                             S: conv2d_37_scratch1                                                  
                                                                             W: conv2d_37_weights                            (24,1,1,144) (156)     
                                                                             W: conv2d_37_bias                               (144,) (158)           
                                                                             O: conv2d_37_output                             (1,14,14,144) (11)     
------ ---------------------- ---- ---------------------- --------- -------- ----------------------------------------------- ---------------------- 
43     conv2d_38_pad_before   38   pad                    0         0        I: conv2d_37_output                             (1,14,14,144) (11)     
                                                                             O: conv2d_38_pad_before_output                  (1,16,16,144) (13)     
------ ---------------------- ---- ---------------------- --------- -------- ----------------------------------------------- ---------------------- 
44     conv2d_38              38   conv2d                 254160    1872     I: conv2d_38_pad_before_output                  (1,16,16,144) (13)     
                                                                             S: conv2d_38_scratch0                                                  
                                                                             S: conv2d_38_scratch1                                                  
                                                                             W: conv2d_38_weights                            (144,3,3,1) (160)      
                                                                             W: conv2d_38_bias                               (144,) (161)           
                                                                             O: conv2d_38_output                             (1,14,14,144) (14)     
------ ---------------------- ---- ---------------------- --------- -------- ----------------------------------------------- ---------------------- 
45     conv2d_39              39   conv2d                 677400    3552     I: conv2d_38_output                             (1,14,14,144) (14)     
                                                                             S: conv2d_39_scratch0                                                  
                                                                             W: conv2d_39_weights                            (144,1,1,24) (163)     
                                                                             W: conv2d_39_bias                               (24,) (164)            
                                                                             O: conv2d_39_output                             (1,14,14,24) (15)      
------ ---------------------- ---- ---------------------- --------- -------- ----------------------------------------------- ---------------------- 
46     eltwise_40             40   eltwise_integer/sum    4704      0        I: eltwise_36_output                            (1,14,14,24) (10)      
                                                                             I: conv2d_39_output                             (1,14,14,24) (15)      
                                                                             O: eltwise_40_output                            (1,14,14,24) (17)      
------ ---------------------- ---- ---------------------- --------- -------- ----------------------------------------------- ---------------------- 
47     conv2d_41              41   conv2d                 677520    4032     I: eltwise_40_output                            (1,14,14,24) (17)      
                                                                             S: conv2d_41_scratch0                                                  
                                                                             S: conv2d_41_scratch1                                                  
                                                                             W: conv2d_41_weights                            (24,1,1,144) (166)     
                                                                             W: conv2d_41_bias                               (144,) (167)           
                                                                             O: conv2d_41_output                             (1,14,14,144) (18)     
------ ---------------------- ---- ---------------------- --------- -------- ----------------------------------------------- ---------------------- 
48     conv2d_42_pad_before   42   pad                    0         0        I: conv2d_41_output                             (1,14,14,144) (18)     
                                                                             O: conv2d_42_pad_before_output                  (1,16,16,144) (20)     
------ ---------------------- ---- ---------------------- --------- -------- ----------------------------------------------- ---------------------- 
49     conv2d_42              42   conv2d                 254160    1872     I: conv2d_42_pad_before_output                  (1,16,16,144) (20)     
                                                                             S: conv2d_42_scratch0                                                  
                                                                             S: conv2d_42_scratch1                                                  
                                                                             W: conv2d_42_weights                            (144,3,3,1) (169)      
                                                                             W: conv2d_42_bias                               (144,) (170)           
                                                                             O: conv2d_42_output                             (1,14,14,144) (21)     
------ ---------------------- ---- ---------------------- --------- -------- ----------------------------------------------- ---------------------- 
50     conv2d_43              43   conv2d                 903200    4736     I: conv2d_42_output                             (1,14,14,144) (21)     
                                                                             S: conv2d_43_scratch0                                                  
                                                                             W: conv2d_43_weights                            (144,1,1,32) (172)     
                                                                             W: conv2d_43_bias                               (32,) (174)            
                                                                             O: conv2d_43_output                             (1,14,14,32) (22)      
------ ---------------------- ---- ---------------------- --------- -------- ----------------------------------------------- ---------------------- 
51     conv2d_44              44   conv2d                 1204416   6912     I: conv2d_43_output                             (1,14,14,32) (22)      
                                                                             S: conv2d_44_scratch0                                                  
                                                                             S: conv2d_44_scratch1                                                  
                                                                             W: conv2d_44_weights                            (32,1,1,192) (175)     
                                                                             W: conv2d_44_bias                               (192,) (177)           
                                                                             O: conv2d_44_output                             (1,14,14,192) (24)     
------ ---------------------- ---- ---------------------- --------- -------- ----------------------------------------------- ---------------------- 
52     conv2d_45_pad_before   45   pad                    0         0        I: conv2d_44_output                             (1,14,14,192) (24)     
                                                                             O: conv2d_45_pad_before_output                  (1,16,16,192) (25)     
------ ---------------------- ---- ---------------------- --------- -------- ----------------------------------------------- ---------------------- 
53     conv2d_45              45   conv2d                 338880    2496     I: conv2d_45_pad_before_output                  (1,16,16,192) (25)     
                                                                             S: conv2d_45_scratch0                                                  
                                                                             S: conv2d_45_scratch1                                                  
                                                                             W: conv2d_45_weights                            (192,3,3,1) (178)      
                                                                             W: conv2d_45_bias                               (192,) (180)           
                                                                             O: conv2d_45_output                             (1,14,14,192) (27)     
------ ---------------------- ---- ---------------------- --------- -------- ----------------------------------------------- ---------------------- 
54     conv2d_46              46   conv2d                 1204256   6272     I: conv2d_45_output                             (1,14,14,192) (27)     
                                                                             S: conv2d_46_scratch0                                                  
                                                                             W: conv2d_46_weights                            (192,1,1,32) (182)     
                                                                             W: conv2d_46_bias                               (32,) (183)            
                                                                             O: conv2d_46_output                             (1,14,14,32) (28)      
------ ---------------------- ---- ---------------------- --------- -------- ----------------------------------------------- ---------------------- 
55     eltwise_47             47   eltwise_integer/sum    6272      0        I: conv2d_43_output                             (1,14,14,32) (22)      
                                                                             I: conv2d_46_output                             (1,14,14,32) (28)      
                                                                             O: eltwise_47_output                            (1,14,14,32) (29)      
------ ---------------------- ---- ---------------------- --------- -------- ----------------------------------------------- ---------------------- 
56     conv2d_48              48   conv2d                 1204416   6912     I: eltwise_47_output                            (1,14,14,32) (29)      
                                                                             S: conv2d_48_scratch0                                                  
                                                                             S: conv2d_48_scratch1                                                  
                                                                             W: conv2d_48_weights                            (32,1,1,192) (185)     
                                                                             W: conv2d_48_bias                               (192,) (186)           
                                                                             O: conv2d_48_output                             (1,14,14,192) (31)     
------ ---------------------- ---- ---------------------- --------- -------- ----------------------------------------------- ---------------------- 
57     conv2d_49_pad_before   49   pad                    0         0        I: conv2d_48_output                             (1,14,14,192) (31)     
                                                                             O: conv2d_49_pad_before_output                  (1,16,16,192) (32)     
------ ---------------------- ---- ---------------------- --------- -------- ----------------------------------------------- ---------------------- 
58     conv2d_49              49   conv2d                 338880    2496     I: conv2d_49_pad_before_output                  (1,16,16,192) (32)     
                                                                             S: conv2d_49_scratch0                                                  
                                                                             S: conv2d_49_scratch1                                                  
                                                                             W: conv2d_49_weights                            (192,3,3,1) (188)      
                                                                             W: conv2d_49_bias                               (192,) (189)           
                                                                             O: conv2d_49_output                             (1,14,14,192) (33)     
------ ---------------------- ---- ---------------------- --------- -------- ----------------------------------------------- ---------------------- 
59     conv2d_50              50   conv2d                 1204256   6272     I: conv2d_49_output                             (1,14,14,192) (33)     
                                                                             S: conv2d_50_scratch0                                                  
                                                                             W: conv2d_50_weights                            (192,1,1,32) (191)     
                                                                             W: conv2d_50_bias                               (32,) (192)            
                                                                             O: conv2d_50_output                             (1,14,14,32) (35)      
------ ---------------------- ---- ---------------------- --------- -------- ----------------------------------------------- ---------------------- 
60     eltwise_51             51   eltwise_integer/sum    6272      0        I: eltwise_47_output                            (1,14,14,32) (29)      
                                                                             I: conv2d_50_output                             (1,14,14,32) (35)      
                                                                             O: eltwise_51_output                            (1,14,14,32) (36)      
------ ---------------------- ---- ---------------------- --------- -------- ----------------------------------------------- ---------------------- 
61     conv2d_52              52   conv2d                 1204416   6912     I: eltwise_51_output                            (1,14,14,32) (36)      
                                                                             S: conv2d_52_scratch0                                                  
                                                                             S: conv2d_52_scratch1                                                  
                                                                             W: conv2d_52_weights                            (32,1,1,192) (194)     
                                                                             W: conv2d_52_bias                               (192,) (196)           
                                                                             O: conv2d_52_output                             (1,14,14,192) (38)     
------ ---------------------- ---- ---------------------- --------- -------- ----------------------------------------------- ---------------------- 
62     conv2d_54_pad_before   54   pad                    0         0        I: conv2d_52_output                             (1,14,14,192) (38)     
                                                                             O: conv2d_54_pad_before_output                  (1,15,15,192) (39)     
------ ---------------------- ---- ---------------------- --------- -------- ----------------------------------------------- ---------------------- 
63     conv2d_54              53   conv2d                 84864     2496     I: conv2d_54_pad_before_output                  (1,15,15,192) (39)     
                                                                             S: conv2d_54_scratch0                                                  
                                                                             S: conv2d_54_scratch1                                                  
                                                                             W: conv2d_54_weights                            (192,3,3,1) (197)      
                                                                             W: conv2d_54_bias                               (192,) (199)           
                                                                             O: conv2d_54_output                             (1,7,7,192) (40)       
------ ---------------------- ---- ---------------------- --------- -------- ----------------------------------------------- ---------------------- 
64     conv2d_55              55   conv2d                 526904    10976    I: conv2d_54_output                             (1,7,7,192) (40)       
                                                                             S: conv2d_55_scratch0                                                  
                                                                             W: conv2d_55_weights                            (192,1,1,56) (201)     
                                                                             W: conv2d_55_bias                               (56,) (202)            
                                                                             O: conv2d_55_output                             (1,7,7,56) (42)        
------ ---------------------- ---- ---------------------- --------- -------- ----------------------------------------------- ---------------------- 
65     conv2d_56              56   conv2d                 922320    20160    I: conv2d_55_output                             (1,7,7,56) (42)        
                                                                             S: conv2d_56_scratch0                                                  
                                                                             S: conv2d_56_scratch1                                                  
                                                                             W: conv2d_56_weights                            (56,1,1,336) (204)     
                                                                             W: conv2d_56_bias                               (336,) (205)           
                                                                             O: conv2d_56_output                             (1,7,7,336) (43)       
------ ---------------------- ---- ---------------------- --------- -------- ----------------------------------------------- ---------------------- 
66     conv2d_57_pad_before   57   pad                    0         0        I: conv2d_56_output                             (1,7,7,336) (43)       
                                                                             O: conv2d_57_pad_before_output                  (1,9,9,336) (45)       
------ ---------------------- ---- ---------------------- --------- -------- ----------------------------------------------- ---------------------- 
67     conv2d_57              57   conv2d                 148512    4368     I: conv2d_57_pad_before_output                  (1,9,9,336) (45)       
                                                                             S: conv2d_57_scratch0                                                  
                                                                             S: conv2d_57_scratch1                                                  
                                                                             W: conv2d_57_weights                            (336,3,3,1) (207)      
                                                                             W: conv2d_57_bias                               (336,) (208)           
                                                                             O: conv2d_57_output                             (1,7,7,336) (46)       
------ ---------------------- ---- ---------------------- --------- -------- ----------------------------------------------- ---------------------- 
68     conv2d_58              58   conv2d                 922040    19040    I: conv2d_57_output                             (1,7,7,336) (46)       
                                                                             S: conv2d_58_scratch0                                                  
                                                                             W: conv2d_58_weights                            (336,1,1,56) (210)     
                                                                             W: conv2d_58_bias                               (56,) (211)            
                                                                             O: conv2d_58_output                             (1,7,7,56) (47)        
------ ---------------------- ---- ---------------------- --------- -------- ----------------------------------------------- ---------------------- 
69     eltwise_59             59   eltwise_integer/sum    2744      0        I: conv2d_55_output                             (1,7,7,56) (42)        
                                                                             I: conv2d_58_output                             (1,7,7,56) (47)        
                                                                             O: eltwise_59_output                            (1,7,7,56) (49)        
------ ---------------------- ---- ---------------------- --------- -------- ----------------------------------------------- ---------------------- 
70     conv2d_60              60   conv2d                 922320    20160    I: eltwise_59_output                            (1,7,7,56) (49)        
                                                                             S: conv2d_60_scratch0                                                  
                                                                             S: conv2d_60_scratch1                                                  
                                                                             W: conv2d_60_weights                            (56,1,1,336) (213)     
                                                                             W: conv2d_60_bias                               (336,) (214)           
                                                                             O: conv2d_60_output                             (1,7,7,336) (50)       
------ ---------------------- ---- ---------------------- --------- -------- ----------------------------------------------- ---------------------- 
71     conv2d_61_pad_before   61   pad                    0         0        I: conv2d_60_output                             (1,7,7,336) (50)       
                                                                             O: conv2d_61_pad_before_output                  (1,9,9,336) (51)       
------ ---------------------- ---- ---------------------- --------- -------- ----------------------------------------------- ---------------------- 
72     conv2d_61              61   conv2d                 148512    4368     I: conv2d_61_pad_before_output                  (1,9,9,336) (51)       
                                                                             S: conv2d_61_scratch0                                                  
                                                                             S: conv2d_61_scratch1                                                  
                                                                             W: conv2d_61_weights                            (336,3,3,1) (216)      
                                                                             W: conv2d_61_bias                               (336,) (217)           
                                                                             O: conv2d_61_output                             (1,7,7,336) (53)       
------ ---------------------- ---- ---------------------- --------- -------- ----------------------------------------------- ---------------------- 
73     conv2d_62              62   conv2d                 922040    19040    I: conv2d_61_output                             (1,7,7,336) (53)       
                                                                             S: conv2d_62_scratch0                                                  
                                                                             W: conv2d_62_weights                            (336,1,1,56) (219)     
                                                                             W: conv2d_62_bias                               (56,) (220)            
                                                                             O: conv2d_62_output                             (1,7,7,56) (54)        
------ ---------------------- ---- ---------------------- --------- -------- ----------------------------------------------- ---------------------- 
74     eltwise_63             63   eltwise_integer/sum    2744      0        I: eltwise_59_output                            (1,7,7,56) (49)        
                                                                             I: conv2d_62_output                             (1,7,7,56) (54)        
                                                                             O: eltwise_63_output                            (1,7,7,56) (56)        
------ ---------------------- ---- ---------------------- --------- -------- ----------------------------------------------- ---------------------- 
75     conv2d_64              64   conv2d                 922320    20160    I: eltwise_63_output                            (1,7,7,56) (56)        
                                                                             S: conv2d_64_scratch0                                                  
                                                                             S: conv2d_64_scratch1                                                  
                                                                             W: conv2d_64_weights                            (56,1,1,336) (221)     
                                                                             W: conv2d_64_bias                               (336,) (222)           
                                                                             O: conv2d_64_output                             (1,7,7,336) (57)       
------ ---------------------- ---- ---------------------- --------- -------- ----------------------------------------------- ---------------------- 
76     conv2d_65_pad_before   65   pad                    0         0        I: conv2d_64_output                             (1,7,7,336) (57)       
                                                                             O: conv2d_65_pad_before_output                  (1,9,9,336) (58)       
------ ---------------------- ---- ---------------------- --------- -------- ----------------------------------------------- ---------------------- 
77     conv2d_65              65   conv2d                 148512    4368     I: conv2d_65_pad_before_output                  (1,9,9,336) (58)       
                                                                             S: conv2d_65_scratch0                                                  
                                                                             S: conv2d_65_scratch1                                                  
                                                                             W: conv2d_65_weights                            (336,3,3,1) (223)      
                                                                             W: conv2d_65_bias                               (336,) (224)           
                                                                             O: conv2d_65_output                             (1,7,7,336) (60)       
------ ---------------------- ---- ---------------------- --------- -------- ----------------------------------------------- ---------------------- 
78     conv2d_66              66   conv2d                 1844080   38080    I: conv2d_65_output                             (1,7,7,336) (60)       
                                                                             S: conv2d_66_scratch0                                                  
                                                                             W: conv2d_66_weights                            (336,1,1,112) (225)    
                                                                             W: conv2d_66_bias                               (112,) (226)           
                                                                             O: conv2d_66_output                             (1,7,7,112) (61)       
------ ---------------------- ---- ---------------------- --------- -------- ----------------------------------------------- ---------------------- 
79     conv2d_67              67   conv2d                 7025920   148480   I: conv2d_66_output                             (1,7,7,112) (61)       
                                                                             S: conv2d_67_scratch0                                                  
                                                                             S: conv2d_67_scratch1                                                  
                                                                             W: conv2d_67_weights                            (112,1,1,1280) (227)   
                                                                             W: conv2d_67_bias                               (1280,) (228)          
                                                                             O: conv2d_67_output                             (1,7,7,1280) (63)      
------ ---------------------- ---- ---------------------- --------- -------- ----------------------------------------------- ---------------------- 
80     pool_68                68   pool                   62720     0        I: conv2d_67_output                             (1,7,7,1280) (63)      
                                                                             O: pool_68_output                               (1,1,1,1280) (64)      
------ ---------------------- ---- ---------------------- --------- -------- ----------------------------------------------- ---------------------- 
81     gemm_69                69   dense                  128100    128400   I: pool_68_output                               (1,1,1,1280) (64)      
                                                                             S: gemm_69_scratch0                                                    
                                                                             W: gemm_69_weights                              (1280,100) (229)       
                                                                             W: gemm_69_bias                                 (100,) (230)           
                                                                             O: gemm_69_output                               (1,100) (65)           
------ ---------------------- ---- ---------------------- --------- -------- ----------------------------------------------- ---------------------- 
82     gemm_70                70   dense                  202       208      I: gemm_69_output                               (1,100) (65)           
                                                                             S: gemm_70_scratch0                                                    
                                                                             W: gemm_70_weights                              (100,2) (231)          
                                                                             W: gemm_70_bias                                 (2,) (232)             
                                                                             O: gemm_70_output                               (1,2) (67)             
------ ---------------------- ---- ---------------------- --------- -------- ----------------------------------------------- ---------------------- 
83     nl_71                  71   nl                     30        0        I: gemm_70_output                               (1,2) (67)             
                                                                             S: nl_71_scratch0                                                      
                                                                             O: nl_71_output                                 (1,2) (68)             
------ ---------------------- ---- ---------------------- --------- -------- ----------------------------------------------- ---------------------- 
84     conversion_72          72   converter              4         0        I: nl_71_output                                 (1,2) (68)             
                                                                             O: conversion_72_output                         (1,2) (69)             
------ ---------------------- ---- ---------------------- --------- -------- ----------------------------------------------- ---------------------- 



Number of operations per c-layer
------- ------ ---------------------------------- ------------ ------------ --------- ---------- 
c_id    m_id   name (type)                                 #op         type    #param   sparsity 
------- ------ ---------------------------------- ------------ ------------ --------- ---------- 
0       0      conversion_0 (converter)                301,056   conv_u8_s8           
1       2      conv2d_2 (optimized_conv2d)           5,419,024   smul_s8_s8       448     0.3058 
2       3      conv2d_3_pad_before (pad)                     0   smul_s8_s8           
3       3      conv2d_3 (conv2d)                     1,806,352   smul_s8_s8       160     0.0125 
4       4      conv2d_4 (conv2d)                     1,605,640   smul_s8_s8       136     0.3088 
5       5      conv2d_5 (conv2d)                     4,816,944   smul_s8_s8       432     0.0255 
6       7      conv2d_7_pad_before (pad)                     0   smul_s8_s8           
7       6      conv2d_7 (conv2d)                     1,354,800   smul_s8_s8       480     0.0042 
8       8      conv2d_8 (conv2d)                     1,204,232   smul_s8_s8       392     0.0332 
9       9      conv2d_9 (conv2d)                     1,204,272   smul_s8_s8       432     0.0139 
10      10     conv2d_10_pad_before (pad)                    0   smul_s8_s8           
11      10     conv2d_10 (conv2d)                    1,354,800   smul_s8_s8       480     0.0083 
12      11     conv2d_11 (conv2d)                    1,204,232   smul_s8_s8       392     0.0153 
13      12     eltwise_12 (eltwise_integer/sum)         25,088     op_s8_s8           
14      13     conv2d_13 (conv2d)                    1,204,272   smul_s8_s8       432     0.0139 
15      15     conv2d_15_pad_before (pad)                    0   smul_s8_s8           
16      14     conv2d_15 (conv2d)                      338,736   smul_s8_s8       480     0.0042 
17      16     conv2d_16 (conv2d)                      602,128   smul_s8_s8       784     0.0166 
18      17     conv2d_17 (conv2d)                    1,204,320   smul_s8_s8     1,632     0.0135 
19      18     conv2d_18_pad_before (pad)                    0   smul_s8_s8           
20      18     conv2d_18 (conv2d)                      677,472   smul_s8_s8       960     0.0115 
21      19     conv2d_19 (conv2d)                    1,204,240   smul_s8_s8     1,552     0.0148 
22      20     eltwise_20 (eltwise_integer/sum)         12,544     op_s8_s8           
23      21     conv2d_21 (conv2d)                    1,204,320   smul_s8_s8     1,632     0.0104 
24      22     conv2d_22_pad_before (pad)                    0   smul_s8_s8           
25      22     conv2d_22 (conv2d)                      677,472   smul_s8_s8       960     0.0021 
26      23     conv2d_23 (conv2d)                    1,204,240   smul_s8_s8     1,552     0.0161 
27      24     eltwise_24 (eltwise_integer/sum)         12,544     op_s8_s8           
28      25     conv2d_25 (conv2d)                    1,204,320   smul_s8_s8     1,632     0.0104 
29      27     conv2d_27_pad_before (pad)                    0   smul_s8_s8           
30      26     conv2d_27 (conv2d)                      169,440   smul_s8_s8       960     0.0000 
31      28     conv2d_28 (conv2d)                      451,608   smul_s8_s8     2,328     0.0168 
32      29     conv2d_29 (conv2d)                      677,520   smul_s8_s8     3,600     0.0067 
33      30     conv2d_30_pad_before (pad)                    0   smul_s8_s8           
34      30     conv2d_30 (conv2d)                      254,160   smul_s8_s8     1,440     0.0118 
35      31     conv2d_31 (conv2d)                      677,400   smul_s8_s8     3,480     0.0161 
36      32     eltwise_32 (eltwise_integer/sum)          4,704     op_s8_s8           
37      33     conv2d_33 (conv2d)                      677,520   smul_s8_s8     3,600     0.0092 
38      34     conv2d_34_pad_before (pad)                    0   smul_s8_s8           
39      34     conv2d_34 (conv2d)                      254,160   smul_s8_s8     1,440     0.0062 
40      35     conv2d_35 (conv2d)                      677,400   smul_s8_s8     3,480     0.0167 
41      36     eltwise_36 (eltwise_integer/sum)          4,704     op_s8_s8           
42      37     conv2d_37 (conv2d)                      677,520   smul_s8_s8     3,600     0.0097 
43      38     conv2d_38_pad_before (pad)                    0   smul_s8_s8           
44      38     conv2d_38 (conv2d)                      254,160   smul_s8_s8     1,440     0.0083 
45      39     conv2d_39 (conv2d)                      677,400   smul_s8_s8     3,480     0.0132 
46      40     eltwise_40 (eltwise_integer/sum)          4,704     op_s8_s8           
47      41     conv2d_41 (conv2d)                      677,520   smul_s8_s8     3,600     0.0117 
48      42     conv2d_42_pad_before (pad)                    0   smul_s8_s8           
49      42     conv2d_42 (conv2d)                      254,160   smul_s8_s8     1,440     0.0118 
50      43     conv2d_43 (conv2d)                      903,200   smul_s8_s8     4,640     0.0136 
51      44     conv2d_44 (conv2d)                    1,204,416   smul_s8_s8     6,336     0.0068 
52      45     conv2d_45_pad_before (pad)                    0   smul_s8_s8           
53      45     conv2d_45 (conv2d)                      338,880   smul_s8_s8     1,920     0.0073 
54      46     conv2d_46 (conv2d)                    1,204,256   smul_s8_s8     6,176     0.0112 
55      47     eltwise_47 (eltwise_integer/sum)          6,272     op_s8_s8           
56      48     conv2d_48 (conv2d)                    1,204,416   smul_s8_s8     6,336     0.0071 
57      49     conv2d_49_pad_before (pad)                    0   smul_s8_s8           
58      49     conv2d_49 (conv2d)                      338,880   smul_s8_s8     1,920     0.0078 
59      50     conv2d_50 (conv2d)                    1,204,256   smul_s8_s8     6,176     0.0146 
60      51     eltwise_51 (eltwise_integer/sum)          6,272     op_s8_s8           
61      52     conv2d_52 (conv2d)                    1,204,416   smul_s8_s8     6,336     0.0120 
62      54     conv2d_54_pad_before (pad)                    0   smul_s8_s8           
63      53     conv2d_54 (conv2d)                       84,864   smul_s8_s8     1,920     0.0010 
64      55     conv2d_55 (conv2d)                      526,904   smul_s8_s8    10,808     0.0112 
65      56     conv2d_56 (conv2d)                      922,320   smul_s8_s8    19,152     0.0113 
66      57     conv2d_57_pad_before (pad)                    0   smul_s8_s8           
67      57     conv2d_57 (conv2d)                      148,512   smul_s8_s8     3,360     0.0048 
68      58     conv2d_58 (conv2d)                      922,040   smul_s8_s8    18,872     0.0150 
69      59     eltwise_59 (eltwise_integer/sum)          2,744     op_s8_s8           
70      60     conv2d_60 (conv2d)                      922,320   smul_s8_s8    19,152     0.0088 
71      61     conv2d_61_pad_before (pad)                    0   smul_s8_s8           
72      61     conv2d_61 (conv2d)                      148,512   smul_s8_s8     3,360     0.0062 
73      62     conv2d_62 (conv2d)                      922,040   smul_s8_s8    18,872     0.0129 
74      63     eltwise_63 (eltwise_integer/sum)          2,744     op_s8_s8           
75      64     conv2d_64 (conv2d)                      922,320   smul_s8_s8    19,152     0.0095 
76      65     conv2d_65_pad_before (pad)                    0   smul_s8_s8           
77      65     conv2d_65 (conv2d)                      148,512   smul_s8_s8     3,360     0.0003 
78      66     conv2d_66 (conv2d)                    1,844,080   smul_s8_s8    37,744     0.0121 
79      67     conv2d_67 (conv2d)                    7,025,920   smul_s8_s8   144,640     0.0092 
80      68     pool_68 (pool)                           62,720     op_s8_s8           
81      69     gemm_69 (dense)                         128,100   smul_s8_s8   128,100     0.0081 
82      70     gemm_70 (dense)                             202   smul_s8_s8       202     0.0149 
83      71     nl_71 (nl)                                   30     op_s8_s8           
84      72     conversion_72 (converter)                     4   conv_s8_u8           
------- ------ ---------------------------------- ------------ ------------ --------- ---------- 
total                                               58,587,280                517,390     0.0101 

Number of operation types
---------------- ------------ ----------- 
operation type              #           % 
---------------- ------------ ----------- 
conv_u8_s8            301,056        0.5% 
smul_s8_s8         58,141,150       99.2% 
op_s8_s8              145,070        0.2% 
conv_s8_u8                  4        0.0% 

Complexity report (model)
------ ----------------------------------------------- ------------------------- ------------------------- ---------- 
m_id   name                                            c_macc                    c_rom                     c_id       
------ ----------------------------------------------- ------------------------- ------------------------- ---------- 
0      serving_default_sequential_1_input0             |                  0.5%   |                  0.0%   [0]        
2      conv2d_2                                        ||||||||||||       9.2%   |                  0.1%   [1]        
3      conv2d_3                                        ||||               3.1%   |                  0.0%   [2, 3]     
4      conv2d_4                                        ||||               2.7%   |                  0.0%   [4]        
5      conv2d_5                                        |||||||||||        8.2%   |                  0.1%   [5]        
6      pad_6                                           |||                2.3%   |                  0.1%   [7]        
7      conv2d_7                                        |                  0.0%   |                  0.0%   [6]        
8      conv2d_8                                        |||                2.1%   |                  0.1%   [8]        
9      conv2d_9                                        |||                2.1%   |                  0.1%   [9]        
10     conv2d_10                                       |||                2.3%   |                  0.1%   [10, 11]   
11     conv2d_11                                       |||                2.1%   |                  0.1%   [12]       
12     eltwise_12                                      |                  0.0%   |                  0.0%   [13]       
13     conv2d_13                                       |||                2.1%   |                  0.1%   [14]       
14     pad_14                                          |                  0.6%   |                  0.1%   [16]       
15     conv2d_15                                       |                  0.0%   |                  0.0%   [15]       
16     conv2d_16                                       ||                 1.0%   |                  0.2%   [17]       
17     conv2d_17                                       |||                2.1%   |                  0.4%   [18]       
18     conv2d_18                                       ||                 1.2%   |                  0.2%   [19, 20]   
19     conv2d_19                                       |||                2.1%   |                  0.3%   [21]       
20     eltwise_20                                      |                  0.0%   |                  0.0%   [22]       
21     conv2d_21                                       |||                2.1%   |                  0.4%   [23]       
22     conv2d_22                                       ||                 1.2%   |                  0.2%   [24, 25]   
23     conv2d_23                                       |||                2.1%   |                  0.3%   [26]       
24     eltwise_24                                      |                  0.0%   |                  0.0%   [27]       
25     conv2d_25                                       |||                2.1%   |                  0.4%   [28]       
26     pad_26                                          |                  0.3%   |                  0.2%   [30]       
27     conv2d_27                                       |                  0.0%   |                  0.0%   [29]       
28     conv2d_28                                       |                  0.8%   |                  0.4%   [31]       
29     conv2d_29                                       ||                 1.2%   |                  0.7%   [32]       
30     conv2d_30                                       |                  0.4%   |                  0.3%   [33, 34]   
31     conv2d_31                                       ||                 1.2%   |                  0.7%   [35]       
32     eltwise_32                                      |                  0.0%   |                  0.0%   [36]       
33     conv2d_33                                       ||                 1.2%   |                  0.7%   [37]       
34     conv2d_34                                       |                  0.4%   |                  0.3%   [38, 39]   
35     conv2d_35                                       ||                 1.2%   |                  0.7%   [40]       
36     eltwise_36                                      |                  0.0%   |                  0.0%   [41]       
37     conv2d_37                                       ||                 1.2%   |                  0.7%   [42]       
38     conv2d_38                                       |                  0.4%   |                  0.3%   [43, 44]   
39     conv2d_39                                       ||                 1.2%   |                  0.7%   [45]       
40     eltwise_40                                      |                  0.0%   |                  0.0%   [46]       
41     conv2d_41                                       ||                 1.2%   |                  0.7%   [47]       
42     conv2d_42                                       |                  0.4%   |                  0.3%   [48, 49]   
43     conv2d_43                                       ||                 1.5%   |                  0.9%   [50]       
44     conv2d_44                                       |||                2.1%   |                  1.3%   [51]       
45     conv2d_45                                       |                  0.6%   |                  0.5%   [52, 53]   
46     conv2d_46                                       |||                2.1%   |                  1.2%   [54]       
47     eltwise_47                                      |                  0.0%   |                  0.0%   [55]       
48     conv2d_48                                       |||                2.1%   |                  1.3%   [56]       
49     conv2d_49                                       |                  0.6%   |                  0.5%   [57, 58]   
50     conv2d_50                                       |||                2.1%   |                  1.2%   [59]       
51     eltwise_51                                      |                  0.0%   |                  0.0%   [60]       
52     conv2d_52                                       |||                2.1%   |                  1.3%   [61]       
53     pad_53                                          |                  0.1%   |                  0.5%   [63]       
54     conv2d_54                                       |                  0.0%   |                  0.0%   [62]       
55     conv2d_55                                       ||                 0.9%   ||                 2.0%   [64]       
56     conv2d_56                                       ||                 1.6%   |||                3.7%   [65]       
57     conv2d_57                                       |                  0.3%   |                  0.8%   [66, 67]   
58     conv2d_58                                       ||                 1.6%   ||                 3.5%   [68]       
59     eltwise_59                                      |                  0.0%   |                  0.0%   [69]       
60     conv2d_60                                       ||                 1.6%   |||                3.7%   [70]       
61     conv2d_61                                       |                  0.3%   |                  0.8%   [71, 72]   
62     conv2d_62                                       ||                 1.6%   ||                 3.5%   [73]       
63     eltwise_63                                      |                  0.0%   |                  0.0%   [74]       
64     conv2d_64                                       ||                 1.6%   |||                3.7%   [75]       
65     conv2d_65                                       |                  0.3%   |                  0.8%   [76, 77]   
66     conv2d_66                                       ||||               3.1%   ||||               7.1%   [78]       
67     conv2d_67                                       ||||||||||||||||  12.0%   ||||||||||||||||  27.6%   [79]       
68     pool_68                                         |                  0.1%   |                  0.0%   [80]       
69     sequential_4_sequential_3_dense_Dense1_MatMul   |                  0.2%   |||||||||||||     23.8%   [81]       
70     sequential_4_sequential_3_dense_Dense2_MatMul   |                  0.0%   |                  0.0%   [82]       
71     nl_71                                           |                  0.0%   |                  0.0%   [83]       
72     conversion_72                                   |                  0.0%   |                  0.0%   [84]       
------ ----------------------------------------------- ------------------------- ------------------------- ---------- 
macc=58,587,280 weights=538,816 act=702,976 ram_io=0

Generated files (8)
------------------------------------------------------------------------------------------------------------ 
/mnt/c/Users/cleme/Documents/Dev/vittascience/vittascience_wio_lite_ai/X-CUBE-AI/App/network_config.h        
/mnt/c/Users/cleme/Documents/Dev/vittascience/vittascience_wio_lite_ai/X-CUBE-AI/App/network.h               
/mnt/c/Users/cleme/Documents/Dev/vittascience/vittascience_wio_lite_ai/X-CUBE-AI/App/network.c               
/mnt/c/Users/cleme/Documents/Dev/vittascience/vittascience_wio_lite_ai/X-CUBE-AI/App/network_data.bin        
/mnt/c/Users/cleme/Documents/Dev/vittascience/vittascience_wio_lite_ai/X-CUBE-AI/App/network_data_params.h   
/mnt/c/Users/cleme/Documents/Dev/vittascience/vittascience_wio_lite_ai/X-CUBE-AI/App/network_data_params.c   
/mnt/c/Users/cleme/Documents/Dev/vittascience/vittascience_wio_lite_ai/X-CUBE-AI/App/network_data.h          
/mnt/c/Users/cleme/Documents/Dev/vittascience/vittascience_wio_lite_ai/X-CUBE-AI/App/network_data.c          
